pths/model_walls_best.pth (torch, 94023 bytes, 19 tensors)

encoder_1.nodes_GATConv1.ws__ws_same_wall__ws.att_src f4 [1, 8, 16]
-1.797918 1.1328403 1.2589049 -1.8612605 -1.9847662 -1.0972906 0.67188346 -0.48891175
-1.2490524 0.592028 -0.56495136 -1.1747996 -0.119068675 0.11285883 1.7085881 1.435082
2.7257264 -1.7759417 2.42811 0.43345854 -2.1342602 -2.6206658 1.088938 2.1861885
1.3118411 -1.5595037 -1.1038826 2.725907 0.9709676 1.932471 -1.6466842 1.3793565
1.4324784 -1.7321494 1.4132067 -1.1835983 1.5031216 1.5509567 -0.557694 0.6401756
-0.103041045 -2.4882505 -0.15891601 1.3145723 -2.3506591 0.97791797 -2.7847717 1.6718345
-1.442434 -2.6795452 3.5776303 3.146575 -0.91851795 -1.8014916 4.0578027 -2.0467255
0.14565778 2.340292 2.9643917 -3.06747 -3.5525558 -0.51877934 3.1470342 3.4085522
1.7402105 -1.6173621 -2.5654528 0.7683678 1.2416861 -1.7608993 -2.5678427 -0.6593211
0.4223053 -0.41881832 -1.7701545 1.5041385 -1.4219013 -1.6713034 -2.1468575 1.6974037
-4.0098815 2.6441307 -4.524781 -0.6945816 1.2784504 1.6449093 -4.2522087 1.3551717
1.7538041 5.0442233 0.29879627 -2.946019 -3.6509964 1.1688657 -3.0551946 -3.88639
-0.8874168 -1.8431164 2.04263 -1.2826995 1.2491353 -1.5210515 -0.4935554 1.0706689
-3.043322 0.6587293 -0.1923565 0.40368447 -2.0040615 -1.4577174 2.23179 0.6800265
0.08093685 1.1012157 0.40589768 4.524167 0.5028813 -2.2369733 -0.73024386 -5.2236023
-5.082229 2.58661 -3.0881748 1.4375635 4.431462 -0.75576395 2.65383 -0.30369335
00000000: 2d22 e6bf e900 913f cc23 a13f c93d eebf
00000010: d20c febf 0574 8cbf 8e00 2c3f a452 fabe
00000020: f3e0 9fbf 268f 173f a7a0 10bf d55f 96bf
00000030: 47da f3bd 8822 e73d 04b3 da3f c4b0 b73f
00000040: 4d72 2e40 0f52 e3bf 2766 1b40 47ee dd3e
00000050: b897 08c0 fdb8 27c0 5262 8b3f 83ea 0b40
00000060: 69ea a73f d19d c7bf 064c 8dbf 4375 2e40
00000070: 5591 783f 365b f73f 8cc6 d2bf c18e b03f
00000080: 745b b73f 12b7 ddbf f5e3 b43f 2680 97bf
00000090: 4a66 c03f c085 c63f 09c5 0ebf 8ce2 233f
000000a0: 2f07 d3bd 7f3f 1fc0 e1ba 22be e843 a83f
000000b0: 3371 16c0 d558 7a3f b339 32c0 acfe d53f
000000c0: ada1 b8bf ab7d 2bc0 e5f7 6440 7c61 4940
000000d0: fe23 6bbf 4797 e6bf 85d9 8140 8dfd 02c0
000000e0: 5027 153e 58c7 1540 98b8 3d40 6e51 44c0
000000f0: 135d 63c0 b9ce 04bf 0269 4940 b825 5a40
00000100: 38bf de3f b905 cfbf 6130 24c0 c1b3 443f
00000110: 92ef 9e3f 2665 e1bf 8957 24c0 45c9 28bf
00000120: 6638 d83e 5b6f d6be 6c94 e2bf 9c87 c03f
00000130: dd00 b6bf 45ed d5bf 1d66 09c0 8644 d93f
00000140: f350 80c0 7039 2940 02cb 90c0 1ad0 31bf
00000150: 43a4 a33f 638c d23f 1812 88c0 4476 ad3f
00000160: a77c e03f 476a a140 d3fb 983e 938b 3cc0
00000170: eda9 69c0 649d 953f 4f88 43c0 9dba 78c0
00000180: bf2d 63bf 3deb ebbf 73ba 0240 7f2f a4bf
00000190: aae3 9f3f d1b1 c2bf 4bb3 fcbe ae0b 893f
000001a0: cac5 42c0 7ca2 283f 1af9 44be bbaf ce3e
000001b0: 8b42 00c0 7c96 babf a6d5 0e40 3716 2e3f
000001c0: 38c2 a53d a3f4 8c3f d2d1 cf3e fac5 9040
000001d0: d4bc 003f 922a 0fc0 43f1 3abf c027 a7c0
000001e0: 9fa1 a2c0 058b 2540 a8a4 45c0 1502 b83f
000001f0: 89ce 8d40 bf79 41bf 5ad8 2940 b27d 9bbe

encoder_1.nodes_GATConv1.ws__ws_same_wall__ws.att_dst f4 [1, 8, 16]
3.4224958 -1.712479 -3.6864512 2.560594 3.0722911 3.7724016 -3.3977885 2.3475704
1.2220482 -3.6445637 0.07555708 3.4061444 2.3033736 -0.29136324 -3.4421532 -2.0683007
-3.4453814 2.6371863 -2.9273746 -1.8610369 3.0990543 3.8199203 -0.28644034 -2.5431187
-3.2914374 1.2602044 2.3982491 -2.5707588 -2.5318294 -3.4034827 1.708137 -2.6044967
-3.4891331 3.023439 -3.4376225 2.7677252 -3.3996336 -3.733209 0.90817994 -2.5890903
1.110679 4.6526327 -0.1853448 -3.6676934 3.237116 -0.87753636 3.7849216 -3.3826022
0.31067526 0.47324833 0.20611992 0.2568201 0.67676294 0.07828921 1.0261325 0.23567176
1.2826095 -0.5928945 -0.06134729 -0.32326525 -1.6102589 -0.37980872 0.961691 0.08270701
-3.191345 1.6909566 3.208324 -1.9927695 0.6174508 2.327714 3.412995 0.8428054
-1.8837295 1.6833297 2.1976142 -3.3086343 0.8645677 2.1511407 2.291811 -2.6668189
0.10741818 0.34353206 -0.3084614 0.03711014 0.72885776 -0.36913943 -0.4736447 -0.11065211
-0.28754857 0.8903115 -0.021611342 -0.5216767 -0.56973374 -0.18523753 -0.026180133 -0.70105475
2.3811266 3.6252437 -4.5580072 1.4705844 -2.2094378 3.784928 0.66560584 -1.5802755
4.4678545 -2.2974582 -0.9950383 -2.7747798 4.197136 2.1707063 -3.864307 -1.5336479
0.1602273 -0.37111312 -0.06905085 0.15550321 0.18219817 -0.16737738 -0.03774804 -0.44631472
-0.28404623 0.065345556 -0.124754325 -0.089390025 0.5839586 0.5495188 0.058202352 0.11693653
00000000: 2c0a 5b40 8332 dbbf d1ee 6bc0 c6e0 2340
00000010: 6ba0 4440 076f 7140 5e75 59c0 983e 1640
00000020: 136c 9c3f 8840 69c0 acbd 9a3d 45fe 5940
00000030: 796a 1340 902d 95be 3d4c 5cc0 0a5f 04c0
00000040: 2181 5cc0 a9c7 2840 1b5a 3bc0 7536 eebf
00000050: e856 4640 9379 7440 4fa8 92be 75c2 22c0
00000060: e9a6 52c0 614e a13f ea7c 1940 5087 24c0
00000070: 7e09 22c0 a9d2 59c0 3ca4 da3f 13b0 26c0
00000080: f54d 5fc0 0680 4140 0202 5cc0 6922 3140
00000090: 9993 59c0 e5ec 6ec0 7b7e 683f a8b3 25c0
000000a0: bb2a 8e3f 5ee2 9440 07cb 3dbe 7dbb 6ac0
000000b0: e92c 4f40 39a6 60bf 283c 7240 8e7c 58c0
000000c0: d410 9f3e 9b4d f23e 1a11 533e ed7d 833e
000000d0: 5640 2d3f 1856 a03d 4f58 833f f053 713e
000000e0: 8c2c a43f efc7 17bf 4c47 7bbd 0683 a5be
000000f0: f71c cebf 4a76 c2be 6231 763f 4b62 a93d
00000100: ff3e 4cc0 4471 d83f 2e55 4d40 1213 ffbf
00000110: 4111 1e3f 44f9 1440 836e 5a40 18c2 573f
00000120: 0c1e f1bf 5977 d73f b6a5 0c40 aac0 53c0
00000130: 4f54 5d3f 4aac 0940 08ad 1240 29ad 2ac0
00000140: 10fe db3d 6fe3 af3e a7ee 9dbe cd00 183d
00000150: 6c96 3a3f d8ff bcbe 8f81 f2be 939d e2bd
00000160: 9139 93be 74eb 633f 450a b1bc 9b8c 05bf
00000170: 12da 11bf e8ae 3dbe b877 d6bc 5378 33bf
00000180: 6164 1840 fe03 6840 32db 91c0 1c3c bc3f
00000190: 6e67 0dc0 433c 7240 2565 2a3f 7846 cabf
000001a0: aaf8 8e40 8e09 13c0 d4ba 7ebf fe95 31c0
000001b0: f04e 8640 daec 0a40 ce50 77c0 934e c4bf
000001c0: a012 243e 8a02 bebe 886a 8dbd 3c3c 1f3e
000001d0: 2892 3a3e fa64 2bbe b09d 1abd 5d83 e4be
000001e0: 826e 91be e4d3 853d 327f ffbd 1e12 b7bd
000001f0: 507e 153f 44ad 0c3f 9765 6e3d 6b7c ef3d

encoder_1.nodes_GATConv1.ws__ws_same_wall__ws.bias f4 [128]
0.061052646 -0.010129396 0.20530461 0.040971283 -0.0918579 0.06623873 0.15951125 -0.023636188
-0.065762855 0.067103915 0.06431864 -0.09981166 -0.0014377156 0.054105647 0.22075357 0.07566326
0.14814037 -0.07044948 -0.018869868 -0.23154324 -0.109828 0.06713758 0.14088164 0.31616852
0.22637397 -0.14305875 0.026386572 0.17921536 -0.029489066 0.06016981 -0.020670459 0.017154427
-0.031290717 -0.05188952 0.17772695 -0.012397156 0.08129781 0.10947537 0.122402884 0.15527664
0.15951432 -0.0402989 0.14348069 -0.052968834 0.030760342 0.049254347 -0.044824887 -0.12093675
-0.026303696 -0.055508472 0.038079176 -0.07575663 -0.110067196 0.042062834 0.125577 -0.058468163
0.055573314 -0.14647387 0.07538905 0.06635599 -0.0834696 0.028607382 0.06925466 -0.029874256
0.13146111 -0.28419024 -0.27729395 -0.16226834 0.084587015 -0.061639365 -0.269417 -0.28982678
0.1371518 -0.02729399 -0.14378776 0.124188736 -0.27303612 -0.065827824 -0.15270188 -0.17195576
-0.1537747 -0.11227216 -0.05406514 0.07604804 0.12418345 0.11179755 -0.2663764 -0.056870133
-0.12514222 0.15225153 0.038758285 0.012600642 0.059081078 -0.060017847 -0.08918977 -0.08459237
0.06715801 0.07739021 -0.069937244 -0.037531655 0.09946947 -0.028078472 -0.39874464 -0.008706502
-0.12972336 -1.6396318e-05 -0.09019928 0.25840965 0.009237384 -0.112390704 -0.039575927 -0.11801373
-0.14278197 -0.11690887 0.12474172 -0.08358229 -0.11723297 -0.017693158 -0.19273312 -0.27543533
-0.14180484 -0.08478698 -0.18471618 0.14036864 0.1378022 -0.21971495 0.026078613 0.0634139
00000000: 5712 7a3d c4f5 25bc 5f3b 523e 81d1 273d
00000010: ff1f bcbd 2ca8 873d eb56 233e aea0 c1bc
00000020: adae 86bd c76d 893d 7eb9 833d 0e6a ccbd
00000030: bb71 bcba e29d 5d3d 390d 623e 57f5 9a3d
00000040: 1cb2 173e d147 90bd fb94 9abc ac19 6dbe
00000050: 81ed e0bd 6d7f 893d 4743 103e d7e0 a13e
00000060: 94ce 673e fe7d 12be a728 d83c 3b84 373e
00000070: 0e93 f1bc 9e74 763d 1855 a9bc 7187 8c3c
00000080: b22a 00bd 1b8a 54bd 0efe 353e 711d 4bbc
00000090: 777f a63d 9f34 e03d 5dae fa3d d700 1f3e
000000a0: b957 233e 7610 25bd 9aec 123e d9f5 58bd
000000b0: 1dfd fb3c edbe 493d 4d9a 37bd b0ad f7bd
000000c0: d97a d7bc da5c 63bd e9f8 1b3d 4b26 9bbd
000000d0: e96a e1bd 144a 2c3d 4297 003e 507c 6fbd
000000e0: d8a0 633d 3ffd 15be 9365 9a3d a6e5 873d
000000f0: 1cf2 aabd 075a ea3c 63d5 8d3d dbba f4bc
00000100: be9d 063e 6281 91be 79f9 8dbe ac29 26be
00000110: f53b ad3d 8f79 7cbd 06f1 89be 2d64 94be
00000120: 8571 0c3e a597 dfbc 193d 13be aa56 fe3d
00000130: 64cb 8bbe bdd0 86bd e25d 1cbe 2c15 30be
00000140: 1d77 1dbe f2ee e5bd 6973 5dbd 13bf 9b3d
00000150: e553 fe3d 1df6 e43d 7d62 88be a8f0 68bd
00000160: 4825 00be d3e7 1b3e 02c1 1e3d ec72 4e3c
00000170: 00ff 713d 46d5 75bd 20a9 b6bd c43e adbd
00000180: 248a 893d c27e 9e3d 423b 8fbd cbba 19bd
00000190: a6b6 cb3d d304 e6bc 4228 ccbe b7a5 0ebc
000001a0: 33d6 04be d38a 89b7 66ba b8bd 454e 843e
000001b0: 6658 173c 192d e6bd 5e1a 22bd 2fb1 f1bd
000001c0: 7035 12be eb6d efbd 9678 ff3d 312d abbd
000001d0: d717 f0bd 3ef1 90bc d55b 45be dc05 8dbe
000001e0: 4a35 11be cca4 adbd 3d26 3dbe ccbc 0f3e
000001f0: 051c 0d3e f5fc 60be d1a2 d53c 26df 813d

encoder_1.nodes_GATConv1.ws__ws_same_wall__ws.lin_src.weight f4 [128, 3]
0.38183424 0.52191603 0.35310152 0.39634174 -0.49454403 -0.072016306 -0.1654345 -0.12013622
-0.29251266 0.05424552 0.572324 0.08742362 0.17703412 0.44102284 0.052020486 0.15589806
0.293614 0.13752519 0.16356087 -0.15066737 -0.16301495 -0.073427334 0.1796531 0.080883816
0.28420642 0.17841452 -0.006842999 0.21859166 -0.22983773 -0.27502933 0.1837509 0.024746688
-0.08738619 0.17067452 0.23066117 0.1093499 -0.07588753 0.1309018 0.03777992 -0.16860682
-0.08621296 -0.04418375 0.117476985 -0.25430578 -0.34186727 -0.14942755 -0.33688223 -0.053830206
-0.21060565 -0.1937783 -0.6671711 0.7935103 -0.031292748 0.43714336 -0.60256505 -0.13462685
-0.7436974 -0.38664478 0.12592575 -0.62072873 0.49244833 0.11812634 0.42984205 0.74482
0.11358333 0.8596905 -0.019614505 -0.05826829 0.15084732 -0.046521146 -0.07288054 -0.35220644
-0.21338776 -0.3003326 -0.2701242 -0.0047232104 -0.030079443 0.1311101 0.40187797 -0.025798857
0.50050455 -0.27184284 -0.14995885 -0.40000555 -0.37597126 -0.049326323 -0.42822778 -0.6556378
-0.0686712 -0.4555942 0.45713094 0.031764988 0.44681618 -0.01537452 -0.062399413 -0.45733956
-0.19356093 -0.13247806 -0.38132602 0.20960328 0.00731448 0.18424837 0.00495708 -0.1282973
-0.22833526 0.3001539 -0.07048707 0.067328446 -0.31239435 -0.047491927 -0.20759848 -0.3655552
-0.06681 -0.17994578 -0.035295486 -0.1027428 0.25392923 0.22938175 -0.010620169 -0.1473802
0.17829795 -0.038333006 0.17286105 0.49506837 0.40218693 0.8551025 0.31474257 -0.022771385
0.06954522 -0.101068005 -0.15554605 -0.40903512 0.12297909 0.06259399 0.5127565 -0.3433244
0.044284925 0.042060502 0.27195364 0.31785953 0.5962564 -0.446713 -0.2538693 -0.6084387
-0.10191287 0.1251916 0.11223542 0.11390762 0.28815287 0.30116335 -0.3913768 -0.49254644
-0.49002534 -0.17403933 -0.27879497 -0.5216683 -0.31719822 0.07048838 0.06381283 -0.15949625
0.123985946 -0.0883638 -0.14764433 -0.79722196 -0.4571061 -0.11581665 0.16214411 -0.06296824
0.33871776 0.0953079 -0.15077972 -0.031278726 -0.2690933 -0.2545101 -0.05981302 -0.43254015
-0.4971953 0.10085841 0.28102592 0.10817224 0.24494809 0.2833803 0.12240105 0.22024043
-0.07418164 0.13771442 0.16321895 -0.41134092 -0.17829926 -0.14987852 -0.45611262 -0.47260562
-0.111963816 -0.13902879 -0.3977858 -0.12884267 0.19049796 0.021827158 0.05994776 0.17678244
0.41840947 -0.19244567 -0.16118617 -0.38378632 -0.04950015 -0.060562346 -0.14801532 0.14305034
0.12675092 0.23733401 0.19624779 0.23133945 0.4090523 -0.22940153 0.04197032 0.02436978
0.18177475 -0.049459964 -0.11947751 0.008091323 0.0139695965 0.07528815 0.12348521 0.14434142
0.3071587 -0.40784538 -0.13736883 -0.10186976 -0.14768703 -0.09387764 -0.0026323963 0.3194355
-0.0069891065 0.2536628 0.2886208 0.04589288 0.3048983 0.05828602 -0.41279462 -0.80318755
0.20502742 0.4125855 0.33149594 -0.20675175 -0.20681104 -0.12986332 0.078963675 0.39289472
0.3525779 -0.037761867 0.20040023 0.048353754 -0.20854592 -0.09053883 -0.123703904 -0.10919668
00000000: c77f c33e 4a9c 053f b9c9 b43e 4eed ca3e
00000010: e034 fdbe 497d 93bd a967 29be fa09 f6bd
00000020: 38c4 95be 8d30 5e3d d383 123f 280b b33d
00000030: 6f48 353e bfcd e13e 6f13 553d bea3 1f3e
00000040: 9354 963e 67d3 0c3e 807c 273e 8c48 1abe
00000050: 64ed 26be 1261 96bd fbf6 373e 6aa6 a53d
00000060: 8183 913e 4cb2 363e 3c3b e0bb 7ed6 5f3e
00000070: 955a 6bbe a5d0 8cbe 3229 3c3e 91b9 ca3c
00000080: 88f7 b2bd 4dc5 2e3e 7132 6c3e d7f2 df3d
00000090: ec6a 9bbd 1f0b 063e 1ebf 1a3d 44a7 2cbe
000000a0: 6c90 b0bd 05fa 34bd c697 f03d 5e34 82be
000000b0: 3a09 afbe 8903 19be d47b acbe 107d 5cbd
000000c0: 02a9 57be d26d 46be bacb 2abf 7e23 4b3f
000000d0: d32c 00bd 41d1 df3e b441 1abf 9fdb 09be
000000e0: f462 3ebf 4ef6 c5be aef2 003e 14e8 1ebf
000000f0: 3022 fc3e 39ec f13d 4214 dc3e 86ac 3e3f
00000100: 609e e83d ad14 5c3f 99ae a0bc bbaa 6ebd
00000110: b877 1a3e f58c 3ebd 6442 95bd 6754 b4be
00000120: 5282 5abe 32c5 99be b84d 8abe 29c5 9abb
00000130: 2a69 f6bc ba41 063e f3c2 cd3e 2058 d3bc
00000140: 1121 003f fc2e 8bbe d08e 19be 87cd ccbe
00000150: 4e7f c0be 660a 4abd ac40 dbbe e1d7 27bf
00000160: 7ca3 8cbd a543 e9be 110d ea3e 011c 023d
00000170: 17c5 e43e 69e5 7bbc 8796 7fbd 6928 eabe
00000180: d634 46be 54a8 07be 2a3d c3be 3ea2 563e
00000190: 4eae ef3b 9bab 3c3e 006f a23b 5e60 03be
000001a0: b8d0 69be c6ad 993e 865b 90bd 7fe3 893d
000001b0: 27f2 9fbe e586 42bd b294 54be 0d2a bbbe
000001c0: aed3 88bd b543 38be 0092 10bd d16a d2bd
000001d0: 0303 823e 0de3 6a3e 3800 2ebc d6ea 16be
000001e0: bd93 363e 1203 1dbd 7d02 313e 9a79 fd3e
000001f0: 72eb cd3e ffe7 5a3f f025 a13e 0e8b babc
00000200: b96d 8e3d befc cebd 7747 1fbe 0d6d d1be
00000210: 76dc fb3d 4731 803d 0344 033f 37c8 afbe
00000220: 1c64 353d a247 2c3d 823d 8b3e 7cbe a23e
00000230: 42a4 183f 91b7 e4be 28fb 81be a3c2 1bbf
00000240: b2b7 d0bd 3a32 003e afdb e53d 6648 e93d
00000250: c688 933e 1532 9a3e 8a62 c8be 0c2f fcbe
00000260: 9ae4 fabe 5e37 32be 37be 8ebe 0e8c 05bf
00000270: ce67 a2be 365c 903d 4db0 823d fc52 23be
00000280: 58ec fd3d 14f8 b4bd 1330 17be bd16 4cbf
00000290: d009 eabe 4831 edbd 1b09 263e 7ef5 80bd
000002a0: 6a6c ad3e ca30 c33d 0066 1abe 1f1e 00bd
000002b0: 99c6 89be 264f 82be 7ffe 74bd e775 ddbe
000002c0: 6290 febe db8e ce3d a1e2 8f3e 6889 dd3d
000002d0: acd3 7a3e 3917 913e 67ad fa3d b586 613e
000002e0: 8bec 97bd 0205 0d3e de22 273e 479b d2be
000002f0: 1594 36be c179 19be 9887 e9be 5df9 f1be
00000300: 494d e5bd 905d 0ebe 95aa cbbe 55ef 03be
00000310: e611 433e dece b23c c88b 753d 7506 353e
00000320: c439 d63e 7a10 45be fd0d 25be a47f c4be
00000330: abc0 4abd 3910 78bd 5491 17be ca7b 123e
00000340: feca 013e b007 733e 2ef5 483e 40e4 6c3e
00000350: 4e6f d13e 3ce8 6abe 12e9 2b3d 22a3 c73c
00000360: 2923 3a3e 8896 4abd a0b0 f4bd 7891 043c
00000370: bce0 643c ac30 9a3d d0e5 fc3d 3dce 133e
00000380: e843 9d3e 1cd1 d0be 6aaa 0cbe 18a1 d0bd
00000390: 453b 17be ec42 c0bd 4884 2cbb 0d8d a33e
000003a0: e004 e5bb 17e0 813e 1bc6 933e 2cfa 3b3d
000003b0: a11b 9c3e 52bd 6e3d d159 d3be b39d 4dbf
000003c0: b5f2 513e 683e d33e d6b9 a93e bbb6 53be
000003d0: 46c6 53be e4fa 04be b5b7 a13d 7f29 c93e
000003e0: 1785 b43e 30ac 1abd b835 4d3e 960e 463d
000003f0: 108d 55be 6c6c b9bd 7958 fdbd 82a2 dfbd

encoder_1.nodes_GATConv1.ws__ws_same_wall__ws.lin_dst.weight f4 [128, 3]
0.38183424 0.52191603 0.35310152 0.39634174 -0.49454403 -0.072016306 -0.1654345 -0.12013622
-0.29251266 0.05424552 0.572324 0.08742362 0.17703412 0.44102284 0.052020486 0.15589806
0.293614 0.13752519 0.16356087 -0.15066737 -0.16301495 -0.073427334 0.1796531 0.080883816
0.28420642 0.17841452 -0.006842999 0.21859166 -0.22983773 -0.27502933 0.1837509 0.024746688
-0.08738619 0.17067452 0.23066117 0.1093499 -0.07588753 0.1309018 0.03777992 -0.16860682
-0.08621296 -0.04418375 0.117476985 -0.25430578 -0.34186727 -0.14942755 -0.33688223 -0.053830206
-0.21060565 -0.1937783 -0.6671711 0.7935103 -0.031292748 0.43714336 -0.60256505 -0.13462685
-0.7436974 -0.38664478 0.12592575 -0.62072873 0.49244833 0.11812634 0.42984205 0.74482
0.11358333 0.8596905 -0.019614505 -0.05826829 0.15084732 -0.046521146 -0.07288054 -0.35220644
-0.21338776 -0.3003326 -0.2701242 -0.0047232104 -0.030079443 0.1311101 0.40187797 -0.025798857
0.50050455 -0.27184284 -0.14995885 -0.40000555 -0.37597126 -0.049326323 -0.42822778 -0.6556378
-0.0686712 -0.4555942 0.45713094 0.031764988 0.44681618 -0.01537452 -0.062399413 -0.45733956
-0.19356093 -0.13247806 -0.38132602 0.20960328 0.00731448 0.18424837 0.00495708 -0.1282973
-0.22833526 0.3001539 -0.07048707 0.067328446 -0.31239435 -0.047491927 -0.20759848 -0.3655552
-0.06681 -0.17994578 -0.035295486 -0.1027428 0.25392923 0.22938175 -0.010620169 -0.1473802
0.17829795 -0.038333006 0.17286105 0.49506837 0.40218693 0.8551025 0.31474257 -0.022771385
0.06954522 -0.101068005 -0.15554605 -0.40903512 0.12297909 0.06259399 0.5127565 -0.3433244
0.044284925 0.042060502 0.27195364 0.31785953 0.5962564 -0.446713 -0.2538693 -0.6084387
-0.10191287 0.1251916 0.11223542 0.11390762 0.28815287 0.30116335 -0.3913768 -0.49254644
-0.49002534 -0.17403933 -0.27879497 -0.5216683 -0.31719822 0.07048838 0.06381283 -0.15949625
0.123985946 -0.0883638 -0.14764433 -0.79722196 -0.4571061 -0.11581665 0.16214411 -0.06296824
0.33871776 0.0953079 -0.15077972 -0.031278726 -0.2690933 -0.2545101 -0.05981302 -0.43254015
-0.4971953 0.10085841 0.28102592 0.10817224 0.24494809 0.2833803 0.12240105 0.22024043
-0.07418164 0.13771442 0.16321895 -0.41134092 -0.17829926 -0.14987852 -0.45611262 -0.47260562
-0.111963816 -0.13902879 -0.3977858 -0.12884267 0.19049796 0.021827158 0.05994776 0.17678244
0.41840947 -0.19244567 -0.16118617 -0.38378632 -0.04950015 -0.060562346 -0.14801532 0.14305034
0.12675092 0.23733401 0.19624779 0.23133945 0.4090523 -0.22940153 0.04197032 0.02436978
0.18177475 -0.049459964 -0.11947751 0.008091323 0.0139695965 0.07528815 0.12348521 0.14434142
0.3071587 -0.40784538 -0.13736883 -0.10186976 -0.14768703 -0.09387764 -0.0026323963 0.3194355
-0.0069891065 0.2536628 0.2886208 0.04589288 0.3048983 0.05828602 -0.41279462 -0.80318755
0.20502742 0.4125855 0.33149594 -0.20675175 -0.20681104 -0.12986332 0.078963675 0.39289472
0.3525779 -0.037761867 0.20040023 0.048353754 -0.20854592 -0.09053883 -0.123703904 -0.10919668
00000000: c77f c33e 4a9c 053f b9c9 b43e 4eed ca3e
00000010: e034 fdbe 497d 93bd a967 29be fa09 f6bd
00000020: 38c4 95be 8d30 5e3d d383 123f 280b b33d
00000030: 6f48 353e bfcd e13e 6f13 553d bea3 1f3e
00000040: 9354 963e 67d3 0c3e 807c 273e 8c48 1abe
00000050: 64ed 26be 1261 96bd fbf6 373e 6aa6 a53d
00000060: 8183 913e 4cb2 363e 3c3b e0bb 7ed6 5f3e
00000070: 955a 6bbe a5d0 8cbe 3229 3c3e 91b9 ca3c
00000080: 88f7 b2bd 4dc5 2e3e 7132 6c3e d7f2 df3d
00000090: ec6a 9bbd 1f0b 063e 1ebf 1a3d 44a7 2cbe
000000a0: 6c90 b0bd 05fa 34bd c697 f03d 5e34 82be
000000b0: 3a09 afbe 8903 19be d47b acbe 107d 5cbd
000000c0: 02a9 57be d26d 46be bacb 2abf 7e23 4b3f
000000d0: d32c 00bd 41d1 df3e b441 1abf 9fdb 09be
000000e0: f462 3ebf 4ef6 c5be aef2 003e 14e8 1ebf
000000f0: 3022 fc3e 39ec f13d 4214 dc3e 86ac 3e3f
00000100: 609e e83d ad14 5c3f 99ae a0bc bbaa 6ebd
00000110: b877 1a3e f58c 3ebd 6442 95bd 6754 b4be
00000120: 5282 5abe 32c5 99be b84d 8abe 29c5 9abb
00000130: 2a69 f6bc ba41 063e f3c2 cd3e 2058 d3bc
00000140: 1121 003f fc2e 8bbe d08e 19be 87cd ccbe
00000150: 4e7f c0be 660a 4abd ac40 dbbe e1d7 27bf
00000160: 7ca3 8cbd a543 e9be 110d ea3e 011c 023d
00000170: 17c5 e43e 69e5 7bbc 8796 7fbd 6928 eabe
00000180: d634 46be 54a8 07be 2a3d c3be 3ea2 563e
00000190: 4eae ef3b 9bab 3c3e 006f a23b 5e60 03be
000001a0: b8d0 69be c6ad 993e 865b 90bd 7fe3 893d
000001b0: 27f2 9fbe e586 42bd b294 54be 0d2a bbbe
000001c0: aed3 88bd b543 38be 0092 10bd d16a d2bd
000001d0: 0303 823e 0de3 6a3e 3800 2ebc d6ea 16be
000001e0: bd93 363e 1203 1dbd 7d02 313e 9a79 fd3e
000001f0: 72eb cd3e ffe7 5a3f f025 a13e 0e8b babc
00000200: b96d 8e3d befc cebd 7747 1fbe 0d6d d1be
00000210: 76dc fb3d 4731 803d 0344 033f 37c8 afbe
00000220: 1c64 353d a247 2c3d 823d 8b3e 7cbe a23e
00000230: 42a4 183f 91b7 e4be 28fb 81be a3c2 1bbf
00000240: b2b7 d0bd 3a32 003e afdb e53d 6648 e93d
00000250: c688 933e 1532 9a3e 8a62 c8be 0c2f fcbe
00000260: 9ae4 fabe 5e37 32be 37be 8ebe 0e8c 05bf
00000270: ce67 a2be 365c 903d 4db0 823d fc52 23be
00000280: 58ec fd3d 14f8 b4bd 1330 17be bd16 4cbf
00000290: d009 eabe 4831 edbd 1b09 263e 7ef5 80bd
000002a0: 6a6c ad3e ca30 c33d 0066 1abe 1f1e 00bd
000002b0: 99c6 89be 264f 82be 7ffe 74bd e775 ddbe
000002c0: 6290 febe db8e ce3d a1e2 8f3e 6889 dd3d
000002d0: acd3 7a3e 3917 913e 67ad fa3d b586 613e
000002e0: 8bec 97bd 0205 0d3e de22 273e 479b d2be
000002f0: 1594 36be c179 19be 9887 e9be 5df9 f1be
00000300: 494d e5bd 905d 0ebe 95aa cbbe 55ef 03be
00000310: e611 433e dece b23c c88b 753d 7506 353e
00000320: c439 d63e 7a10 45be fd0d 25be a47f c4be
00000330: abc0 4abd 3910 78bd 5491 17be ca7b 123e
00000340: feca 013e b007 733e 2ef5 483e 40e4 6c3e
00000350: 4e6f d13e 3ce8 6abe 12e9 2b3d 22a3 c73c
00000360: 2923 3a3e 8896 4abd a0b0 f4bd 7891 043c
00000370: bce0 643c ac30 9a3d d0e5 fc3d 3dce 133e
00000380: e843 9d3e 1cd1 d0be 6aaa 0cbe 18a1 d0bd
00000390: 453b 17be ec42 c0bd 4884 2cbb 0d8d a33e
000003a0: e004 e5bb 17e0 813e 1bc6 933e 2cfa 3b3d
000003b0: a11b 9c3e 52bd 6e3d d159 d3be b39d 4dbf
000003c0: b5f2 513e 683e d33e d6b9 a93e bbb6 53be
000003d0: 46c6 53be e4fa 04be b5b7 a13d 7f29 c93e
000003e0: 1785 b43e 30ac 1abd b835 4d3e 960e 463d
000003f0: 108d 55be 6c6c b9bd 7958 fdbd 82a2 dfbd

encoder_1.edges_lin1.ws__ws_same_wall__ws.weight f4 [16, 9]
-0.32372084 -1.0409527 -0.6829829 0.10841342 -1.041573 -1.1085166 5.401978 0.36179578
0.13260388 0.053727314 -0.5376116 1.2702599 0.043262117 -0.83776987 0.9167805 -8.826
0.14310682 -0.4049294 -0.06934126 -0.71070385 -1.2616132 0.25844613 -0.7471298 -1.2131717
5.8722224 0.43413547 0.32698303 -0.4742359 -0.13611668 1.1904485 0.25193915 0.036522545
1.0749092 -7.5644393 -0.104984686 0.10218477 0.40783063 -0.560025 -1.0556836 0.053676
-0.59692204 -1.2008212 -3.7046566 0.61093843 0.37094584 -0.077042595 -0.15383008 -0.3911696
-0.025921995 -0.2551171 -0.1825034 -7.2295036 -0.048824765 -0.16811694 -0.29820558 1.2693436
0.02737717 -0.15508004 1.0778319 -0.10835598 6.9331503 -0.11493435 -0.09103147 0.14705591
-0.5276685 -1.3491827 0.024891542 -0.5969804 -1.2966629 -1.4969051 0.47538152 0.50143236
0.11008853 -0.19090183 -0.7470689 -0.04075226 -0.36364344 -0.66602933 -8.530085 0.23973255
0.54319125 0.15450667 0.5018142 0.30198592 -0.12295229 0.11132808 0.17134808 9.908898
-0.20133488 -0.44036478 -0.22120084 1.0058203 -1.3173345 0.008919517 1.0466119 -1.1245171
9.100265 -0.037971336 0.45558006 0.042191226 0.34089556 0.1971707 -0.18022642 0.30739278
0.32862622 -5.940823 -0.13370913 -0.36613652 -0.27699086 1.2035565 0.117099255 -0.11385212
1.3686875 -0.047844913 5.9609365 -0.19042188 -0.27900434 0.058648754 1.607222 -1.1028996
-0.04507834 1.7354826 -1.0870845 4.8053164 0.6336668 0.05259861 -0.26534638 -1.6500808
0.9740481 -0.30099246 -1.5272542 1.2454132 -6.4221706 0.12889554 0.073671855 0.0023370842
0.26316413 -0.64669365 -0.06709759 -0.06671233 -0.37437004 -6.4663243 0.293017 0.40573758
00000000: bdbe a5be f03d 85bf f8d7 2ebf db07 de3d
00000010: 4452 85bf dfe3 8dbf 01dd ac40 4c3d b93e
00000020: 50c9 073e 2c11 5c3d eaa0 09bf e097 a23f
00000030: 9e33 313d 1678 56bf 20b2 6a3f 4c37 0dc1
00000040: 988a 123e e852 cfbe ca02 8ebd b0f0 35bf
00000050: 8b7c a1bf 0d53 843e e643 3fbf 3649 9bbf
00000060: 3fe9 bb40 0147 de3e 526a a73e 0ccf f2be
00000070: 2c62 0bbe 9e60 983f 2bfe 803e aa98 153d
00000080: a096 893f e30f f2c0 3602 d7bd 4046 d13d
00000090: 2dcf d03e cc5d 0fbf a420 87bf 5edb 5b3d
000000a0: e2cf 18bf 82b4 99bf 1819 6dc0 7666 1c3f
000000b0: 9dec bd3e 82c8 9dbd a285 1dbe 6247 c8be
000000c0: 5d5a d4bc b59e 82be 2ce2 3abe 1858 e7c0
000000d0: 7afc 47bd d926 2cbe 67ae 98be da79 a23f
000000e0: 1646 e03c 4dcd 1ebe 65f6 893f bde9 ddbd
000000f0: 5edc dd40 b362 ebbd b56e babd d395 163e
00000100: 4815 07bf 05b2 acbf 59e9 cb3c b5d3 18bf
00000110: 0df9 a5bf 969a bfbf 3565 f33e df5d 003f
00000120: 1876 e13d c57b 43be e83f 3fbf d7eb 26bd
00000130: 792f babe e680 2abf 3a7b 08c1 737c 753e
00000140: 950e 0b3f ff36 1e3e e576 003f e69d 9a3e
00000150: 69ce fbbd faff e33d df75 2f3e d98a 1e41
00000160: bb2a 4ebe 7e77 e1be 7982 62be b8be 803f
00000170: 6b9e a8bf 2a23 123c 61f7 853f 2df0 8fbf
00000180: af9a 1141 d587 1bbd ca41 e93e b5d0 2c3d
00000190: dd89 ae3e 1ee7 493e 468d 38be 9662 9d3e
000001a0: b241 a83e 391b bec0 0ceb 08be 3f76 bbbe
000001b0: bfd1 8dbe 240e 9a3f bcd1 ef3d 4d2b e9bd
000001c0: 2731 af3f 07f9 43bd febf be40 f4fd 42be
000001d0: a8d9 8ebe ad39 703d 73b9 cd3f d02b 8dbf
000001e0: 11a4 38bd 4b24 de3f 9625 8bbf 27c5 9940
000001f0: fd37 223f a471 573d 7bdb 87be d935 d3bf
00000200: 375b 793f af1b 9abe 117d c3bf b369 9f3f
00000210: 6c82 cdc0 31fd 033e 45e1 963d c429 193b
00000220: 73bd 863e b78d 25bf 766a 89bd 79a0 88bd
00000230: 6ead bfbe 21ec cec0 5306 963e d6bc cf3e

encoder_1.edges_lin1.ws__ws_same_wall__ws.bias f4 [16]
0.56165594 -0.039611448 0.6113525 -0.43551424 1.4639276 1.0314944 -1.1617577 1.5991098
1.504961 -1.0381457 -0.06895091 -0.08082922 -1.1541808 -0.17121257 0.1810167 0.69616795
00000000: afc8 0f3f 9d3f 22bd 9981 1c3f b9fb debe
00000010: fb61 bb3f 0208 843f 7ab4 94bf a1af cc3f
00000020: 90a2 c03f f5e1 84bf 2236 8dbd ca89 a5bd
00000030: 32bc 93bf 5952 2fbe 715c 393e 1038 323f

encoder_2.nodes_GATConv1.ws__ws_same_wall__ws.att_src f4 [1, 1, 16]
0.27402788 0.088388376 0.55751806 -0.3751431 0.12745415 -0.24658906 0.11078687 0.9362672
0.2666702 1.2554187 0.31315896 -0.20920412 -1.2820214 0.7401046 -0.09893888 0.54018927
00000000: 624d 8c3e f704 b53d 81b9 0e3f c212 c0be
00000010: 5783 023e d881 7cbe 3ae4 e23d 35af 6f3f
00000020: ff88 883e 8fb1 a03f 5f56 a03e 9b39 56be
00000030: 4719 a4bf 7f77 3d3f 78a0 cabd d849 0a3f

encoder_2.nodes_GATConv1.ws__ws_same_wall__ws.att_dst f4 [1, 1, 16]
-1.8033491 -1.4867885 0.83793676 0.21601751 -0.0015348492 -2.1529906 -0.7216982 -1.0005635
-1.2447851 0.9083561 -1.071337 0.64149636 -0.5878843 1.056028 -0.3151209 -0.5920336
00000000: 25d4 e6bf 164f bebf 0683 563f b233 5d3e
00000010: fe2c c9ba 99ca 09c0 37c1 38bf 7712 80bf
00000020: 1e55 9fbf 068a 683f 9221 89bf 1b39 243f
00000030: 967f 16bf ed2b 873f 8757 a1be 848f 17bf

encoder_2.nodes_GATConv1.ws__ws_same_wall__ws.bias f4 [16]
-0.24026828 -0.9060415 -1.7389824 0.5329992 -0.14353083 -2.4981227 0.049188934 0.24574949
-1.7905284 -0.7994001 -2.3064642 0.26651537 -0.42789713 0.22833617 -0.8741835 -2.3952458
00000000: e308 76be 56f2 67bf fa96 debf a372 083f
00000010: bff9 12be 3ee1 1fc0 567a 493d c1a5 7b3e
00000020: 0930 e5bf 7ca5 4cbf 1c9d 13c0 b474 883e
00000030: 5515 dbbe f5d0 693e 7dca 5fbf b54b 19c0

encoder_2.nodes_GATConv1.ws__ws_same_wall__ws.lin_src.weight f4 [16, 128]
-0.06711871 0.39275146 0.1956049 -0.5764021 -0.33060122 0.5739128 0.5100332 -0.035894062
0.21807298 -0.2596036 0.2886276 -0.33703732 -0.046099715 0.09768221 -0.10153313 -0.12693769
0.41490766 -0.13902685 0.3170404 -0.38572332 -0.40681183 -0.46905988 -0.03805063 0.18977883
0.34890553 0.21675532 0.33349636 0.58347875 -0.04111929 0.19827327 -0.15345533 0.15980761
0.139155 0.009080188 -0.21554126 -0.18431586 0.3369749 0.057950813 0.57871455 -0.28853574
-0.2640772 -0.5157981 -0.037601903 -0.14635164 -0.25531232 0.123109326 -0.14499351 0.55932045
-0.052223805 0.5398648 -0.12722409 -0.25922668 0.15717474 0.091117635 0.11915448 0.30173582
0.09539998 -0.09848515 -0.03647848 -0.35325631 -0.2632816 0.33386445 0.3898209 -0.13241771
0.04951472 0.0923886 0.005292669 0.3377763 -0.20383589 -0.16053094 0.15163074 -0.23461789
0.080103256 -0.35606438 0.13737516 0.29411477 0.36560023 -0.18682912 -0.22963713 0.13128617
0.12242704 0.31375572 -0.44736025 -0.16076744 0.21143235 -0.2605927 -0.27491808 -0.03926319
-0.1865183 -0.071117505 0.20664953 -0.039117992 -0.094333485 0.111034006 -0.6658582 -0.32545602
0.6816172 -0.13630244 -0.34949753 0.30972067 0.37123257 -0.5698201 0.3798059 0.10025541
-0.82195216 -0.3171079 0.38720956 0.24740228 0.35244304 0.021070225 0.24939995 0.5795535
0.14890948 -0.41733444 -0.06745105 0.36956918 -0.50051624 0.36812812 -0.45064822 0.016218437
-0.0610554 0.2444233 0.011011609 0.16473697 1.0056018 0.2900119 0.2939336 -0.1246437
-0.46788242 -0.26561978 0.074665844 -0.0072676893 -0.39978844 0.24286677 -0.0051502734 0.18233259
0.54335433 -0.009985188 -0.0048019113 0.014588116 0.46730745 0.45903206 -0.5966837 -0.28528583
0.45035437 0.33509845 0.040455732 0.04672097 -0.5515566 -0.69832075 0.06557688 0.3836632
-0.30775732 0.046653837 0.07134658 0.60987777 -0.079725206 0.7638904 0.6618903 0.20077929
0.2898375 -0.07889724 0.26038527 -0.6290064 0.5156086 0.68209654 0.06971517 -0.15044731
-0.04573858 -0.35958543 -0.018536638 0.24127838 0.04076977 0.4455068 0.18977198 0.6683193
0.24960816 0.314553 0.32095698 -0.22759104 0.9140433 -0.17805488 -0.13311103 0.22928183
-0.0028042963 -0.051368933 -0.009337491 -0.23087664 -0.2711364 0.31509048 -0.31935066 -0.020367455
-0.027340008 0.3121718 0.2065126 0.08398366 -0.9281953 -0.25900725 0.0028212895 0.45881334
0.088416666 -0.16504242 0.84960437 0.7148009 0.3361127 0.54913855 -0.30822098 0.25503197
0.36985752 0.011601216 -0.39932665 -0.28298068 -0.43329948 -0.08672745 -0.03474893 0.20158799
-0.255639 -0.04969209 -0.06413033 0.08174357 -0.5964369 -0.0542263 -0.3519441 -0.2742755
0.28411946 -0.4710798 -0.50965035 0.46739364 -0.23070045 -0.9844414 0.95369303 0.5860441
0.072040215 0.049003605 0.42754295 -0.19743484 0.33436218 0.23139194 0.43198952 0.5311535
0.28897843 0.32785994 -0.29076374 0.07277644 -0.32231256 0.30313098 -0.17077023 0.94989824
0.448853 -0.016898148 0.8281989 -0.28274763 -0.10299027 0.8082614 0.26036787 -0.38255253
00000000: 8975 89bd b816 c93e a74c 483e 178f 13bf
00000010: 9044 a9be f3eb 123f 8991 023f a705 13bd
00000020: 864e 5f3e c3ea 84be ffc6 933e 2890 acbe
00000030: 0ed3 3cbd 9c0d c83d 9af0 cfbd f4fb 01be
00000040: c76e d43e 0e5d 0ebe 1f53 a23e 877d c5be
00000050: a449 d0be 9e28 f0be fada 1bbd 6255 423e
00000060: bfa3 b23e 1bf5 5d3e 09c0 aa3e dd5e 153f
00000070: b36c 28bd 2608 4b3e 6523 1dbe 9ba4 233e
00000080: a67e 0e3e 12c5 143c d9b6 5cbe 4cbd 3cbe
00000090: f987 ac3e d55d 6d3d a326 143f f5ba 93be
000000a0: 2035 87be 580b 04bf 7404 1abd 34dd 15be
000000b0: 4cb8 82be be20 fc3d 2e79 14be a02f 0f3f
000000c0: a1e8 55bd 9434 0a3f 0847 02be 5cb9 84be
000000d0: 6af2 203e e29b ba3d 4407 f43d 1e7d 9a3e
000000e0: 1161 c33d 95b2 c9bd 756a 15bd 03de b4be
000000f0: d9cc 86be 48f0 aa3e 9b96 c73e 8298 07be
00000100: f2cf 4a3d 3c36 bd3d 206e ad3b 04f1 ac3e
00000110: 5bba 50be 3962 24be 1745 1b3e ac3f 70be
00000120: 2d0d a43d 124e b6be 13ac 0c3e 3696 963e
00000130: f42f bb3e 2250 3fbe ff25 6bbe e26f 063e
00000140: 07bb fa3d 97a4 a03e 670c e5be 38a0 24be
00000150: b981 583e 686c 85be 10c2 8cbe 70d2 20bd
00000160: a7fe 3ebe 0ea6 91bd ef9b 533e 303a 20bd
00000170: ea31 c1bd cc65 e33d af75 2abf 2ca2 a6be
00000180: 777e 2e3f de92 0bbe 57f1 b2be b593 9e3e
00000190: 3212 be3e bbdf 11bf eb75 c23e b552 cd3d
000001a0: 756b 52bf f75b a2be 5540 c63e 0657 7d3e
000001b0: 6a73 b43e 779b ac3c b362 7f3e 9e5d 143f
000001c0: ba7b 183e dcac d5be c723 8abd 2c38 bd3e
000001d0: d521 00bf 4a7b bc3e 5dbb e6be 87dc 843c
000001e0: 3a15 7abd 1a4a 7a3e 096a 343c cfb0 283e
000001f0: 8fb7 803f 717c 943e 777e 963e 3245 ffbd
00000200: 498e efbe 51ff 87be 68ea 983d cc25 eebb
00000210: 12b1 ccbe 11b2 783e a0c3 a8bb 65b5 3a3e
00000220: 4519 0b3f ea98 23bc 5a59 9dbb fe02 6f3c
00000230: ec42 ef3e 4006 eb3e 43c0 18bf fc10 92be
00000240: d994 e63e 0692 ab3e e9b4 253d 7d5e 3f3d
00000250: d032 0dbf 26c5 32bf 2c4d 863d 816f c43e
00000260: 5e92 9dbe 1818 3f3d 281e 923d f320 1c3f
00000270: f846 a3bd 528e 433f a571 293f 1699 4d3e
00000280: 9565 943e e094 a1bd 3851 853e 9006 21bf
00000290: edfe 033f e19d 2e3f d4c6 8e3d dc0e 1abe
000002a0: 6158 3bbd 951b b8be 26da 97bc ae11 773e
000002b0: 34fe 263d 7819 e43e 9653 423e f916 2b3f
000002c0: 4899 7f3e 170d a13e 7954 a43e a00d 69be
000002d0: befe 693f 0554 36be 424e 08be dbc8 6a3e
000002e0: 49c8 37bb 3b68 52bd 47fc 18bc ed6a 6cbe
000002f0: 64d2 8abe 8a53 a13e ee81 a3be a6d9 a6bc
00000300: 27f8 dfbc fbd4 9f3e 0a78 533e a0ff ab3d
00000310: 359e 6dbf 999c 84be 62e5 383b 95e9 ea3e
00000320: cc13 b53d e100 29be ac7f 593f 31fd 363f
00000330: f716 ac3e 5894 0c3f 24cf 9dbe 8d93 823e
00000340: f75d bd3e 0713 3e3c 8b74 ccbe d8e2 90be
00000350: 6ed9 ddbe 299e b1bd e554 0ebd 156d 4e3e
00000360: 1de3 82be ef89 4bbd c356 83bd 2c69 a73d
00000370: 17b0 18bf 661c 5ebd 0432 b4be d76d 8cbe
00000380: 1b78 913e 5f31 f1be 7278 02bf 384e ef3e
00000390: bd3c 6cbe 5a04 7cbf 3a25 743f fc06 163f
000003a0: d289 933d 01b8 483d e9e6 da3e 5c2c 4abe
000003b0: 8531 ab3e 02f2 6c3e bb2d dd3e adf9 073f
000003c0: fbf4 933e 42dd a73e fcde 94be d00b 953d
000003d0: 2706 a5be fc33 9b3e 64de 2ebe 882c 733f
000003e0: 0fd0 e53e fc6d 8abc d804 543f 4cc4 90be
000003f0: 90ec d2bd 38ea 4e3f f04e 853e eddd c3be

encoder_2.nodes_GATConv1.ws__ws_same_wall__ws.lin_dst.weight f4 [16, 128]
-0.06711871 0.39275146 0.1956049 -0.5764021 -0.33060122 0.5739128 0.5100332 -0.035894062
0.21807298 -0.2596036 0.2886276 -0.33703732 -0.046099715 0.09768221 -0.10153313 -0.12693769
0.41490766 -0.13902685 0.3170404 -0.38572332 -0.40681183 -0.46905988 -0.03805063 0.18977883
0.34890553 0.21675532 0.33349636 0.58347875 -0.04111929 0.19827327 -0.15345533 0.15980761
0.139155 0.009080188 -0.21554126 -0.18431586 0.3369749 0.057950813 0.57871455 -0.28853574
-0.2640772 -0.5157981 -0.037601903 -0.14635164 -0.25531232 0.123109326 -0.14499351 0.55932045
-0.052223805 0.5398648 -0.12722409 -0.25922668 0.15717474 0.091117635 0.11915448 0.30173582
0.09539998 -0.09848515 -0.03647848 -0.35325631 -0.2632816 0.33386445 0.3898209 -0.13241771
0.04951472 0.0923886 0.005292669 0.3377763 -0.20383589 -0.16053094 0.15163074 -0.23461789
0.080103256 -0.35606438 0.13737516 0.29411477 0.36560023 -0.18682912 -0.22963713 0.13128617
0.12242704 0.31375572 -0.44736025 -0.16076744 0.21143235 -0.2605927 -0.27491808 -0.03926319
-0.1865183 -0.071117505 0.20664953 -0.039117992 -0.094333485 0.111034006 -0.6658582 -0.32545602
0.6816172 -0.13630244 -0.34949753 0.30972067 0.37123257 -0.5698201 0.3798059 0.10025541
-0.82195216 -0.3171079 0.38720956 0.24740228 0.35244304 0.021070225 0.24939995 0.5795535
0.14890948 -0.41733444 -0.06745105 0.36956918 -0.50051624 0.36812812 -0.45064822 0.016218437
-0.0610554 0.2444233 0.011011609 0.16473697 1.0056018 0.2900119 0.2939336 -0.1246437
-0.46788242 -0.26561978 0.074665844 -0.0072676893 -0.39978844 0.24286677 -0.0051502734 0.18233259
0.54335433 -0.009985188 -0.0048019113 0.014588116 0.46730745 0.45903206 -0.5966837 -0.28528583
0.45035437 0.33509845 0.040455732 0.04672097 -0.5515566 -0.69832075 0.06557688 0.3836632
-0.30775732 0.046653837 0.07134658 0.60987777 -0.079725206 0.7638904 0.6618903 0.20077929
0.2898375 -0.07889724 0.26038527 -0.6290064 0.5156086 0.68209654 0.06971517 -0.15044731
-0.04573858 -0.35958543 -0.018536638 0.24127838 0.04076977 0.4455068 0.18977198 0.6683193
0.24960816 0.314553 0.32095698 -0.22759104 0.9140433 -0.17805488 -0.13311103 0.22928183
-0.0028042963 -0.051368933 -0.009337491 -0.23087664 -0.2711364 0.31509048 -0.31935066 -0.020367455
-0.027340008 0.3121718 0.2065126 0.08398366 -0.9281953 -0.25900725 0.0028212895 0.45881334
0.088416666 -0.16504242 0.84960437 0.7148009 0.3361127 0.54913855 -0.30822098 0.25503197
0.36985752 0.011601216 -0.39932665 -0.28298068 -0.43329948 -0.08672745 -0.03474893 0.20158799
-0.255639 -0.04969209 -0.06413033 0.08174357 -0.5964369 -0.0542263 -0.3519441 -0.2742755
0.28411946 -0.4710798 -0.50965035 0.46739364 -0.23070045 -0.9844414 0.95369303 0.5860441
0.072040215 0.049003605 0.42754295 -0.19743484 0.33436218 0.23139194 0.43198952 0.5311535
0.28897843 0.32785994 -0.29076374 0.07277644 -0.32231256 0.30313098 -0.17077023 0.94989824
0.448853 -0.016898148 0.8281989 -0.28274763 -0.10299027 0.8082614 0.26036787 -0.38255253
00000000: 8975 89bd b816 c93e a74c 483e 178f 13bf
00000010: 9044 a9be f3eb 123f 8991 023f a705 13bd
00000020: 864e 5f3e c3ea 84be ffc6 933e 2890 acbe
00000030: 0ed3 3cbd 9c0d c83d 9af0 cfbd f4fb 01be
00000040: c76e d43e 0e5d 0ebe 1f53 a23e 877d c5be
00000050: a449 d0be 9e28 f0be fada 1bbd 6255 423e
00000060: bfa3 b23e 1bf5 5d3e 09c0 aa3e dd5e 153f
00000070: b36c 28bd 2608 4b3e 6523 1dbe 9ba4 233e
00000080: a67e 0e3e 12c5 143c d9b6 5cbe 4cbd 3cbe
00000090: f987 ac3e d55d 6d3d a326 143f f5ba 93be
000000a0: 2035 87be 580b 04bf 7404 1abd 34dd 15be
000000b0: 4cb8 82be be20 fc3d 2e79 14be a02f 0f3f
000000c0: a1e8 55bd 9434 0a3f 0847 02be 5cb9 84be
000000d0: 6af2 203e e29b ba3d 4407 f43d 1e7d 9a3e
000000e0: 1161 c33d 95b2 c9bd 756a 15bd 03de b4be
000000f0: d9cc 86be 48f0 aa3e 9b96 c73e 8298 07be
00000100: f2cf 4a3d 3c36 bd3d 206e ad3b 04f1 ac3e
00000110: 5bba 50be 3962 24be 1745 1b3e ac3f 70be
00000120: 2d0d a43d 124e b6be 13ac 0c3e 3696 963e
00000130: f42f bb3e 2250 3fbe ff25 6bbe e26f 063e
00000140: 07bb fa3d 97a4 a03e 670c e5be 38a0 24be
00000150: b981 583e 686c 85be 10c2 8cbe 70d2 20bd
00000160: a7fe 3ebe 0ea6 91bd ef9b 533e 303a 20bd
00000170: ea31 c1bd cc65 e33d af75 2abf 2ca2 a6be
00000180: 777e 2e3f de92 0bbe 57f1 b2be b593 9e3e
00000190: 3212 be3e bbdf 11bf eb75 c23e b552 cd3d
000001a0: 756b 52bf f75b a2be 5540 c63e 0657 7d3e
000001b0: 6a73 b43e 779b ac3c b362 7f3e 9e5d 143f
000001c0: ba7b 183e dcac d5be c723 8abd 2c38 bd3e
000001d0: d521 00bf 4a7b bc3e 5dbb e6be 87dc 843c
000001e0: 3a15 7abd 1a4a 7a3e 096a 343c cfb0 283e
000001f0: 8fb7 803f 717c 943e 777e 963e 3245 ffbd
00000200: 498e efbe 51ff 87be 68ea 983d cc25 eebb
00000210: 12b1 ccbe 11b2 783e a0c3 a8bb 65b5 3a3e
00000220: 4519 0b3f ea98 23bc 5a59 9dbb fe02 6f3c
00000230: ec42 ef3e 4006 eb3e 43c0 18bf fc10 92be
00000240: d994 e63e 0692 ab3e e9b4 253d 7d5e 3f3d
00000250: d032 0dbf 26c5 32bf 2c4d 863d 816f c43e
00000260: 5e92 9dbe 1818 3f3d 281e 923d f320 1c3f
00000270: f846 a3bd 528e 433f a571 293f 1699 4d3e
00000280: 9565 943e e094 a1bd 3851 853e 9006 21bf
00000290: edfe 033f e19d 2e3f d4c6 8e3d dc0e 1abe
000002a0: 6158 3bbd 951b b8be 26da 97bc ae11 773e
000002b0: 34fe 263d 7819 e43e 9653 423e f916 2b3f
000002c0: 4899 7f3e 170d a13e 7954 a43e a00d 69be
000002d0: befe 693f 0554 36be 424e 08be dbc8 6a3e
000002e0: 49c8 37bb 3b68 52bd 47fc 18bc ed6a 6cbe
000002f0: 64d2 8abe 8a53 a13e ee81 a3be a6d9 a6bc
00000300: 27f8 dfbc fbd4 9f3e 0a78 533e a0ff ab3d
00000310: 359e 6dbf 999c 84be 62e5 383b 95e9 ea3e
00000320: cc13 b53d e100 29be ac7f 593f 31fd 363f
00000330: f716 ac3e 5894 0c3f 24cf 9dbe 8d93 823e
00000340: f75d bd3e 0713 3e3c 8b74 ccbe d8e2 90be
00000350: 6ed9 ddbe 299e b1bd e554 0ebd 156d 4e3e
00000360: 1de3 82be ef89 4bbd c356 83bd 2c69 a73d
00000370: 17b0 18bf 661c 5ebd 0432 b4be d76d 8cbe
00000380: 1b78 913e 5f31 f1be 7278 02bf 384e ef3e
00000390: bd3c 6cbe 5a04 7cbf 3a25 743f fc06 163f
000003a0: d289 933d 01b8 483d e9e6 da3e 5c2c 4abe
000003b0: 8531 ab3e 02f2 6c3e bb2d dd3e adf9 073f
000003c0: fbf4 933e 42dd a73e fcde 94be d00b 953d
000003d0: 2706 a5be fc33 9b3e 64de 2ebe 882c 733f
000003e0: 0fd0 e53e fc6d 8abc d804 543f 4cc4 90be
000003f0: 90ec d2bd 38ea 4e3f f04e 853e eddd c3be

encoder_2.edges_lin1.ws__ws_same_wall__ws.weight f4 [16, 272]
0.042490114 0.1955256 -0.114514925 0.033890836 -0.07826361 -0.08776498 0.040332705 -0.27377284
-0.047234602 -0.119666465 0.16799901 -0.090127654 -0.14465392 -0.113559745 0.0027025722 0.10833699
0.0811687 0.04881908 0.337919 0.15491103 0.060384467 0.16060491 -0.13503751 0.09661249
0.02725927 0.12526117 -0.06244012 0.06283103 -0.0639825 -0.063178815 0.10314949 0.09422875
0.04198527 0.14774133 -0.005831622 0.17112015 -0.25162652 -0.30120972 -0.04721561 -0.10049059
0.08813753 0.3580128 0.030173277 0.02527337 0.041514255 -0.17155465 -0.002047104 -0.44747442
-0.08694337 -0.09192737 -0.17886944 -0.037124638 -0.18179648 0.001829703 -0.038624927 0.019138915
0.16218577 0.14320302 -0.104512185 0.07676517 0.11482152 0.028336933 0.022095341 0.13225128
0.0398756 0.016387222 -0.030163117 -0.08069282 0.07535293 -0.009525371 0.12858492 -0.07652823
0.096143104 0.067057155 0.001987064 -0.12495083 -0.21228375 0.0493041 0.1983085 -0.011746751
0.036031045 -0.12025831 0.032612152 0.0073572644 -0.023942446 0.070271395 0.17859846 -0.1669966
-0.011611274 -0.16923723 -0.07287355 -0.1111401 0.30554563 0.19895686 0.1271332 0.023948604
-0.13036673 0.18261051 0.2635385 0.01688993 0.09816029 -0.018604007 -0.2226031 0.028955292
0.02388267 0.22033653 -0.16848512 -0.15073338 -0.05698298 -0.12727542 -0.2852934 -0.071898654
-0.21706003 -0.119398326 -0.037063528 0.064798 -0.059312344 -0.015304783 -0.0641415 0.22541739
0.05140671 0.17266937 -0.26152396 -0.042196635 -0.0021154343 -0.33684883 0.031719405 0.013182047
0.21035513 0.12260692 -0.22774714 -0.115848124 0.022391332 -0.0017819585 0.23243818 -0.19746196
0.062624365 0.014330833 0.07097235 0.017892465 -0.24993238 -0.26166487 -0.045632675 0.18953681
-0.19757545 0.14950489 0.15256274 0.1439142 -0.041684914 0.07764485 0.067044884 -0.12390146
-0.049199257 0.1796513 0.0697002 0.100816615 0.11868803 -0.13798109 0.086317345 -0.06908841
0.014204963 -0.17215355 0.034456197 -0.07763665 -0.021196187 0.14837171 -0.09493598 -0.024444636
0.09363351 0.26610067 0.22095321 0.0025206602 0.0012324682 -0.06536702 -0.051683467 -0.2806205
-0.15286194 -0.015518889 -0.26382148 0.07991032 -0.056307677 0.060992856 0.26398087 -0.17868903
0.21305461 0.043371137 -0.1123958 0.17476226 -0.076580055 0.16064031 0.04269275 0.048207693
-0.005975746 0.11847338 0.069746666 0.023960494 -0.1150341 0.21068689 0.0034587954 -0.1397125
-0.11755712 0.14353469 -0.07961224 0.051268265 -0.0060050352 0.12927385 -0.0012272081 -0.010260537
0.13551931 -0.026816934 0.04669306 0.08593985 -0.03360185 0.07886209 -0.014540133 -0.07006927
-0.09931686 0.026110386 0.055262182 -0.08946304 0.18848969 0.22976069 0.0780586 0.15323141
0.034880575 0.14099924 0.055200223 0.16621915 -0.024437012 -0.12733734 -0.017446585 -0.09104449
-0.052706223 -0.0130655775 -0.055001214 -0.15764011 -0.0329557 -0.05852195 -0.43883544 0.20011558
0.026596785 -0.2121187 0.1779727 0.257709 -0.049155526 -0.00787607 0.02425293 -0.06957514
0.0348287 0.0660308 -0.16513906 -0.14290377 -0.05808376 -0.121858336 -0.08366297 -0.028737076
00000000: 1d0a 2e3d dd37 483e cd86 eabd 1ed1 0a3d
00000010: ac48 a0bd 20be b3bd e833 253d f42b 8cbe
00000020: 1279 41bd b113 f5bd ef07 2c3e d994 b8bd
00000030: 2820 14be 0392 e8bd a31d 313b c9df dd3d
00000040: c63b a63d 84f6 473d b803 ad3e ffa0 1e3e
00000050: b455 773d 9d75 243e 4647 0abe c5dc c53d
00000060: d54e df3c 7744 003e 36c1 7fbd 8ead 803d
00000070: 4209 83bd e563 81bd 0a40 d33d 01fb c03d
00000080: bff8 2b3d 8149 173e 3117 bfbb 1f3a 2f3e
00000090: 31d5 80be 2938 9abe 2865 41bd 03ce cdbd
000000a0: 7381 b43d 744d b73e f32d f73c 190a cf3c
000000b0: da0a 2a3d 06ac 2fbe b528 06bb 5e1b e5be
000000c0: 5e0f b2bd 6b44 bcbd 8d29 37be 0110 18bd
000000d0: db28 3abe a5d2 ef3a 2c35 1ebd 37c9 9c3c
000000e0: 0714 263e d0a3 123e 7c0a d6bd 0f37 9d3d
000000f0: 8c27 eb3d db22 e83c 4a01 b53c e16c 073e
00000100: 9954 233d 7f3e 863c a418 f7bc 4742 a5bd
00000110: a352 9a3d 4d10 1cbc c4ab 033e d5ba 9cbd
00000120: ade6 c43d 4355 893d 6739 023b 39e6 ffbd
00000130: e960 59be 19f3 493d 6211 4b3e 7275 40bc
00000140: 4a95 133d fd49 f6bd 5294 053d 3515 f13b
00000150: f322 c4bc 73ea 8f3d 84e2 363e 2801 2bbe
00000160: 373d 3ebc 864c 2dbe ba3e 95bd 6c9d e3bd
00000170: 7a70 9c3e 59bb 4b3e 352f 023e dd2f c43c
00000180: db7e 05be 40fe 3a3e 85ee 863e c05c 8a3c
00000190: 4308 c93d 6e67 98bc 11f2 63be a633 ed3c
000001a0: 97a5 c33c e69f 613e 5d87 2cbe da59 1abe
000001b0: fc66 69bd 7d54 02be fa11 92be 9a3f 93bd
000001c0: fc44 5ebe 1c87 f4bd edcf 17bd d0b4 843d
000001d0: 80f1 72bd eac0 7abc 9e5c 83bd d1d3 663e
000001e0: d88f 523d 3dd0 303e 78e6 85be 61d6 2cbd
000001f0: 19a3 0abb 7377 acbe 35ec 013d 83f9 573c
00000200: 5667 573e 5619 fb3d 8c36 69be c841 edbd
00000210: 076e b73c 9b90 e9ba 4604 6e3e 7833 4abe
00000220: 3441 803d dfcb 6a3c f459 913d 3893 923c
00000230: 46ee 7fbe f0f8 85be 54e9 3abd f015 423e
00000240: 3851 4abe cf17 193e 6839 1c3e 3e5e 133e
00000250: cdbd 2abd 4304 9f3d d44e 893d 0cc0 fdbd
00000260: 2985 49bd 83f6 373e fabe 8e3d f178 ce3d
00000270: b612 f33d ea4a 0dbe 26c7 b03d 397e 8dbd
00000280: efbb 683c 0549 30be f121 0d3d f7ff 9ebd
00000290: a0a3 adbc c1ee 173e cc6d c2bd 1e40 c8bc
000002a0: edc2 bf3d 593e 883e 8f41 623e a931 253b
000002b0: c58a a13a 25df 85bd 0bb2 53bd 7dad 8fbe
000002c0: d787 1cbe f042 7ebc 9c13 87be 06a8 a33d
000002d0: e1a2 66bd a5d3 793d 8028 873e 42fa 36be
000002e0: fd2a 5a3e efa5 313d c52f e6bd e1f4 323e
000002f0: 01d6 9cbd e57e 243e 98de 2e3d 6e75 453d
00000300: 31d0 c3bb 2ca2 f23d 57d7 8e3d cc48 c43c
00000310: 0097 ebbd 4ebe 573e f5ac 623b cb10 0fbe
00000320: cac1 f0bd c2fa 123e be0b a3bd acfe 513d
00000330: e3c5 c4bb 5d60 043e 45da a0ba d01b 28bc
00000340: 93c5 0a3e 30af dbbc 3941 3f3d 3b01 b03d
00000350: 18a2 09bd 7382 a13d bd39 6ebc 7a80 8fbd
00000360: a366 cbbd 73e5 d53c 995a 623d 6638 b7bd
00000370: 7103 413e 6346 6b3e 30dd 9f3d b2e8 1c3e
00000380: efde 0e3d 1b62 103e a119 623d 5a35 2a3e
00000390: 2130 c8bc b864 02be 24ec 8ebc 8975 babd
000003a0: 7be2 57bd 0111 56bc f448 61bd 696c 21be
000003b0: 8efc 06bd b6b4 6fbd 0aaf e0be 19eb 4c3e
000003c0: 80e1 d93c a535 59be 7a3e 363e 6ff2 833e
000003d0: 4e57 49bd a20a 01bc 15ae c63c 697d 8ebd
000003e0: 8aa8 0e3d 283b 873d 371a 29be 5e55 12be
000003f0: 3de9 6dbd dd90 f9bd 7e57 abbd 046a ebbc

encoder_2.edges_lin1.ws__ws_same_wall__ws.bias f4 [16]
0.32907233 -0.11412951 0.6860676 -1.0427613 1.0970192 -0.070301846 0.7094003 1.1649653
-0.637866 0.17574798 1.0131223 -1.2151349 -0.67586905 -0.6745911 -0.69902426 0.3454063
00000000: 2b7c a83e bcbc e9bd 20a2 2f3f 3479 85bf
00000010: 206b 8c3f 6afa 8fbd 429b 353f 951d 953f
00000020: 304b 23bf 47f7 333e fead 813f 8a89 9bbf
00000030: c105 2dbf 01b2 2cbf 41f3 32bf 18d9 b03e
