src/graph_reasoning/pths/model_rooms_best.pth (torch, 94023 bytes, 19 tensors)

encoder_1.nodes_GATConv1.ws__ws_same_room__ws.att_src f4 [1, 8, 16]
000000 0d d9 1f bb a4 1a db 3d f4 f3 77 bc ca 6a 43 3f
       -0.0024390847 0.10698441 -0.015133847 0.7633482
000010 90 81 80 be 45 93 e1 3e 42 ee 5a 3d 2c 03 af 3d
       -0.25098848 0.4405767 0.053449877 0.08545527
000020 2d 83 be 3d 98 dc ac 3d 5d 9e aa 3d 6e f3 4e be
       0.093023635 0.084405124 0.08330987 -0.20210049
000030 63 f0 65 3d 99 6b 8c 3f fb b3 af bd 05 76 99 3c
       0.056137454 1.0970336 -0.085792504 0.018733034
000040 e6 ae b0 3d 95 62 01 bf 40 5a c1 3d 68 bd c4 3e
       0.08627109 -0.5054105 0.09441042 0.38425756
000050 4e 6d 58 bd d5 23 61 3f 61 fc 35 3e b9 44 c7 3c
       -0.052838616 0.879453 0.17772056 0.024324762
000060 de be 55 3e a0 22 11 3d 5f f2 57 3c 36 3a a9 3c
       0.20873591 0.03543341 0.013180344 0.02065764
000070 c1 83 a7 3d 84 14 c4 3d 48 6d d8 3e ff c8 9a be
       0.08179427 0.095742255 0.42270875 -0.30231473
000080 f0 4d dc 3f d9 a8 8b be dd 1f 4c bf b3 8c 59 3f
       1.7211285 -0.27277258 -0.7973612 0.84980315
000090 e6 33 96 3e 67 99 fd be 48 38 52 bf 3e 20 d6 be
       0.2933647 -0.495311 -0.8211713 -0.41821474
0000a0 6c ea 9d bd df 30 46 bf c1 d5 95 bf 2f a9 c6 3e
       -0.07710728 -0.7741832 -1.1705858 0.38800952
0000b0 15 89 31 be e6 e8 82 3e 04 38 7d 3e 52 d4 69 bf
       -0.17337449 0.25568312 0.247284 -0.913396
0000c0 ca 32 0a bf 5c 3c 6a bf d8 bb b0 be d1 9e 6c 3f
       -0.5398375 -0.9149835 -0.34518313 0.92429835
0000d0 3e fa 97 be 5d 97 d3 be a8 c8 bb 3e 6b 1e ba be
       -0.29683107 -0.4132642 0.36676526 -0.36351332
0000e0 fe df ab 3f bb 25 59 3f a0 4b 97 be d9 1b b4 be
       1.3427732 0.848232 -0.29549885 -0.35177496
0000f0 55 80 b3 be c4 f0 20 3f b2 88 d4 3e 2b 1a c0 3e
       -0.35058847 0.6286738 0.4151054 0.37519965
000100 e5 6f 4d be 63 75 55 bf 2d 31 09 be eb e8 2b 3e
       -0.20062216 -0.8338224 -0.13397665 0.1678807
000110 d5 af a3 3e 83 af 21 3f 62 82 83 3f 35 67 47 bf
       0.31970087 0.63158435 1.0274165 -0.77891856
000120 e1 ff 29 bf b5 76 e4 3e 9f c8 c7 be 2d bd de 3e
       -0.66406065 0.44621816 -0.3902025 0.43503705
000130 82 c8 c2 bd 94 08 81 bf 70 66 d3 be 90 61 4e be
       -0.095109 -1.0080743 -0.4128909 -0.20154405
000140 1d da 84 3e c7 c8 55 bf e9 67 19 3e 77 97 36 bd
       0.25947657 -0.83509487 0.14981045 -0.044578042
000150 42 0f de 3d 49 26 e9 3e 40 20 3f 3f a3 a4 86 3c
       0.10842754 0.45537022 0.74658585 0.016435927
000160 2c a8 80 be 2a 44 cf be fc 76 55 bf 88 a6 94 be
       -0.25128305 -0.40481693 -0.8338468 -0.29033303
000170 cc e2 af bd 67 b0 c0 be 53 e2 af 3e dd 7d dc 3e
       -0.0858818 -0.37634584 0.3435236 0.43064776
000180 75 fd 9f be 03 35 b9 bd 7e ce 83 3e e0 be 4b 3e
       -0.3124806 -0.09043314 0.2574348 0.19897032
000190 c2 f0 d4 be 44 8b c9 be 3c 3a 8d 3d 24 2c cf be
       -0.41589934 -0.39364064 0.06895873 -0.40463364
0001a0 4f a1 21 be e9 db 2a bd 99 a6 76 3e 15 60 a5 be
       -0.1578419 -0.04171363 0.2408699 -0.32299867
0001b0 f6 57 d3 3f 16 bc 46 be 23 53 de bd 9b 93 bf 3e
       1.6511219 -0.19407687 -0.10855701 0.37417302
0001c0 8f 60 a0 c0 5c ad f4 c0 74 f4 84 c0 4c db 87 40
       -5.011787 -7.646162 -4.1548405 4.2455196
0001d0 cc 11 0a 41 ef fb d8 40 4a 83 85 40 cb 77 99 40
       8.629345 6.7807536 4.1722765 4.795873
0001e0 08 fe b5 40 ac 9f 84 c0 25 74 d2 40 5e b8 10 41
       5.6872597 -4.144491 6.576678 9.0450115
0001f0 27 cf 61 40 c0 91 bb 40 3a 8b 01 40 32 19 61 3f
       3.5282686 5.8615417 2.0241227 0.8792907

encoder_1.nodes_GATConv1.ws__ws_same_room__ws.att_dst f4 [1, 8, 16]
000000 ba 0d 20 3d 47 b7 0a bd b5 1e 00 3e 40 4c 15 be
       0.03907559 -0.033866193 0.12511714 -0.14579868
000010 dc b4 5d 3e b2 9d 1b c0 e5 dd 02 bd ad 7f c9 bd
       0.21651024 -2.4315 -0.031949896 -0.09838805
000020 c2 55 a7 3c 85 1b 3c be ba 64 a3 bd 5e 0c c1 bb
       0.020426635 -0.18369873 -0.079781964 -0.005891367
000030 5d 28 a3 bd 04 43 ac 3d 4d 8d a8 bc 24 15 2d bd
       -0.07966683 0.0841122 -0.02057519 -0.04225649
000040 06 25 3f be d4 08 c3 3d ee 15 62 3c 66 bf 70 c0
       -0.18666467 0.09523168 0.013799174 -3.761682
000050 6d 86 47 3e 71 25 95 3f 00 42 5c 3d 6c c6 44 be
       0.19484873 1.1652051 0.05377388 -0.19216317
000060 af 1d 4f be 0d 98 2a be 1b 45 4a be f7 34 1f be
       -0.20226167 -0.16659565 -0.19752924 -0.15547548
000070 a7 d9 22 be 3e 41 d3 3c 4e 5d 18 3e f7 d1 c1 bc
       -0.1590334 0.025787946 0.14879343 -0.02365969
000080 67 2f e8 be 17 e4 e5 3f 3e 3b 2c 3f 38 68 65 3f
       -0.45348665 1.7960232 0.67277896 0.8961215
000090 d5 63 a1 3f db a7 07 3f e7 5f 3e bf 23 0c 96 bd
       1.2608591 0.529905 -0.74365085 -0.07326534
0000a0 e9 51 cd 3e 01 27 0b 3c b0 e7 54 3e e3 27 04 3f
       0.40101555 0.008493186 0.20791507 0.5162336
0000b0 99 55 35 c0 e5 45 31 bf 24 8a de 3d 1e 41 1c bd
       -2.8333495 -0.69247276 0.10866192 -0.038148038
0000c0 1c 1e 4b bf f0 0b 46 bf 7c 0b 41 bf c0 6d 59 bf
       -0.7934282 -0.77361965 -0.7540815 -0.8493309
0000d0 12 97 23 bf 07 04 3e bf ee 76 1b 3f e2 b4 40 bf
       -0.6390239 -0.74224895 0.6072835 -0.75276005
0000e0 48 1f d7 bf 81 57 b2 bf 2e e0 38 bf 5e 4d 2e bf
       -1.6806421 -1.3932954 -0.7221707 -0.680868
0000f0 23 45 36 bf ff 5a 6c 3b d0 ee 98 3f fb 71 48 bf
       -0.71199244 0.003606498 1.194788 -0.7829892
000100 7d 90 29 3f 2d 5a a7 3f 9c 38 b2 bf 0c 3c 1a be
       0.66236097 1.3074394 -1.3923526 -0.15061969
000110 5a cb 09 3f 96 48 49 c0 c2 13 95 c0 cc cb ed 3f
       0.53825915 -3.1450553 -4.658662 1.8577819
000120 a6 98 3f 3f a4 a8 e4 be 9d 01 de 3f 74 32 25 bf
       0.748423 -0.44659913 1.7344242 -0.6453011
000130 18 e9 c6 3f a7 70 4c 40 14 1e 4e 3f de 6c 93 be
       1.5539885 3.1943758 0.80514646 -0.28793997
000140 51 9c e3 be e6 d7 2d 3f 7e e2 04 be 35 0c 1e 3e
       -0.44455197 0.6790756 -0.12977025 0.15434344
000150 22 eb 92 be 54 7c 00 3f a9 d4 37 40 f9 5f 73 be
       -0.28695017 0.5018971 2.8723547 -0.2376708
000160 04 60 d8 3f 54 a1 42 bb 7b 01 31 c0 e7 a6 cb be
       1.6904302 -0.002969821 -2.7657154 -0.39775774
000170 60 2a 87 be 1a 9f c6 3e 2e 3f 1e be 47 35 c5 be
       -0.26399517 0.3879326 -0.15453789 -0.3851721
000180 32 6e 11 3e 3a 27 b3 be 4f 6f 0b be a5 27 f2 bd
       0.14202192 -0.34990865 -0.1361668 -0.11823968
000190 c4 db bb 3e b7 8b 71 3e 91 2e b2 bd 3c d9 4c 40
       0.36691105 0.23588453 -0.08700288 3.200759
0001a0 d6 d3 1c 3d fa 2b 93 be 11 ea 0a be 7c a4 51 3e
       0.03828796 -0.2874449 -0.13565852 0.20472902
0001b0 bb ba 05 bf ee ae d2 bc 56 a2 69 3d e1 7b 42 be
       -0.52238053 -0.025718179 0.05703958 -0.18992569
0001c0 92 2f 84 bf f7 c7 1d bf d7 38 5e bf fe d4 84 bf
       -1.0327017 -0.6163325 -0.8680548 -1.03775
0001d0 a7 de 21 3f c5 de 0b 3f d9 8f 71 3f e0 11 ba 3e
       0.63230366 0.54636794 0.9436012 0.36341763
0001e0 69 88 dd bd 77 e2 42 3f 4f 0e 46 be 4c aa b5 3f
       -0.10817034 0.7612681 -0.19341396 1.4192595
0001f0 f7 83 1b 3f fc 03 96 3f 2b 6f d6 be 09 48 b4 bf
       0.6074824 1.1719966 -0.4188169 -1.4084483

encoder_1.nodes_GATConv1.ws__ws_same_room__ws.bias f4 [128]
000000 19 bb 28 3d d5 41 c9 bd aa 6c 91 3c 5f e6 04 40
       0.041194055 -0.098270096 0.01775201 2.0765607
000010 a2 18 ca 3e b1 47 91 be 53 c1 09 bd 4a b3 03 be
       0.39471918 -0.2837501 -0.033631634 -0.12861362
000020 71 75 14 be 79 5f 2c be 3b ff e9 bd 05 8f ea 3d
       -0.14497925 -0.16833295 -0.114256345 0.1145306
000030 b1 5d 1a bc fc 69 ac 3f 8d 1e a5 3d c5 9f ae bd
       -0.009421752 1.3469844 0.08062468 -0.08526567
000040 a8 23 e3 bd 61 67 43 be a2 49 8f bd e5 d6 37 be
       -0.11090785 -0.19082405 -0.06996466 -0.1795307
000050 87 1d 02 3e 54 3c cc 3f 11 81 2e bd c4 2e e7 bd
       0.12706576 1.5955911 -0.042603556 -0.11288217
000060 cf c3 54 3e b7 91 63 bd 82 d1 5d be 23 d9 36 be
       0.2077782 -0.055558886 -0.21661952 -0.17856269
000070 5a 38 03 be fc 07 07 bb 7d 66 16 3f 26 87 4c be
       -0.12814465 -0.0020604124 0.58750135 -0.1997343
000080 86 2e a4 3f 67 d8 a2 3f 95 90 00 bf 9d ad f3 bd
       1.2826698 1.2722291 -0.50220615 -0.118983485
000090 f2 5e 04 bd 22 ab 3b 3f 73 6e 16 bf c0 85 cd be
       -0.03231711 0.73308 -0.5876228 -0.40141106
0000a0 e4 b4 70 3d e6 07 7c be fd fa 0e bf 99 78 81 bd
       0.05876626 -0.24612388 -0.5585173 -0.0632183
0000b0 08 5d 4c bf 72 15 8d 3f a4 1f 8a 3d bd 01 03 bf
       -0.79829454 1.102217 0.06744316 -0.5117453
0000c0 3c 47 32 bd 64 18 ba bd 89 78 cf bb 18 50 3a 3f
       -0.043524966 -0.090866834 -0.0063315076 0.72778463
0000d0 c9 44 85 3d 70 c3 95 3d d3 c1 62 be a4 8f 41 3c
       0.0650726 0.07312667 -0.2214425 0.011814032
0000e0 73 f5 8e 3f f7 cb 21 3f 34 6b a3 bd 10 2c f4 3d
       1.1168655 0.6320185 -0.07979432 0.11922467
0000f0 90 24 86 3d 87 dd 20 3f 2c b3 0b 3e f3 5a 59 3e
       0.065499425 0.62838024 0.13642567 0.212261
000100 4e aa b8 bd f7 8f 10 bb f0 1f 1b be 88 cf 45 bc
       -0.09016858 -0.0022058466 -0.15148902 -0.012073405
000110 65 46 0f 3e 0d f7 12 be 15 5c d2 be 67 fb bf 3d
       0.13991697 -0.14352055 -0.41085878 0.09374123
000120 c3 fe c0 bd 13 c9 2a 3d 33 27 5b 3b b5 f8 6b 3d
       -0.09423592 0.041695666 0.0033440113 0.057610232
000130 e8 72 83 bd 48 07 39 be ed 76 3d 3e 64 79 8c bf
       -0.06418401 -0.18069184 0.18502398 -1.0974545
000140 fc e3 0f be 74 a5 df bb c7 7c 70 bd 0d fe 85 bd
       -0.14051813 -0.0068251435 -0.058712747 -0.06542597
000150 ab ff a0 bd af c5 72 3e 54 c0 ed 3d dc d3 ca 3d
       -0.07861265 0.23708223 0.11608949 0.0990369
000160 8e a6 bd 3e db 8c ea bc 99 fa 48 bc ee 4f aa 3d
       0.37041134 -0.028631618 -0.012266778 0.08316027
000170 2b 87 bc bd 3b 63 a9 3d 86 84 61 3d 9e 12 0c be
       -0.09205469 0.0827088 0.055058025 -0.13678977
000180 b2 ab cc bc 82 f3 66 be e4 27 de bd 8f c0 06 be
       -0.024984214 -0.22553828 -0.10847452 -0.13159393
000190 0e 0c 9b 3e cf 1a c9 3e f0 4a d9 3c cf 5e f2 3d
       0.30282634 0.39278266 0.02652499 0.118344896
0001a0 5e eb 2f 3c f4 73 c8 bd ce 25 fa bd 7b 19 54 3e
       0.010737268 -0.09787741 -0.12214242 0.20712845
0001b0 a0 98 ed 3f 87 45 22 be f0 8f 8a 3f 73 62 16 be
       1.8562202 -0.15846835 1.0825176 -0.14685993
0001c0 53 be 86 be 01 e5 c4 be cf 0a b8 bd 5d 78 2e bd
       -0.2631708 -0.38455966 -0.089864366 -0.042595256
0001d0 f9 1b 80 3e c7 d5 93 3d 91 59 8e 3c 18 ea 42 bd
       0.2502134 0.07218509 0.017376693 -0.04758653
0001e0 6b 84 55 bd 6b dc 65 bc 15 f8 8c bd 67 de 8e 3e
       -0.052128237 -0.0140296025 -0.068832554 0.27904055
0001f0 ca f7 30 be 05 13 be 3d 91 5d 43 be 9b 70 92 3b
       -0.17282024 0.092809714 -0.19078662 0.00446899

encoder_1.nodes_GATConv1.ws__ws_same_room__ws.lin_src.weight f4 [128, 3]
000000 be 69 90 3d 8b 38 de bc be 29 61 bd 8f 42 ee 3d
       0.07051419 -0.027126571 -0.05497145 0.11633789
000010 9e 54 23 3c fd 3f 02 bd db 8a 8a 3c f0 d8 d1 bc
       0.009968905 -0.031799305 0.016911915 -0.02561614
000020 c8 e4 73 3c 89 ef f9 3d b8 58 07 c0 63 be 8e c0
       0.014886089 0.12203891 -2.11479 -4.4607406
000030 05 99 19 3e 41 ad eb be e9 af 3d bf af a9 0a c0
       0.14999779 -0.4603062 -0.7409654 -2.1666067
000040 7f 0b 05 40 da de 08 bf 78 36 1b 3d 7a ad a7 bc
       2.0788267 -0.53465044 0.037893742 -0.020468462
000050 de eb c6 3d b8 81 a5 bd d8 d3 68 3e 15 f2 8f bd
       0.09712957 -0.080813825 0.22737062 -0.07028595
000060 49 ec b9 3b 36 87 30 3e 91 1a 74 3b 68 66 c9 bd
       0.0056739193 0.17239079 0.003724728 -0.098339856
000070 a1 43 da 3e fb 36 2e 3d a8 20 3c bd 32 a4 5e 3e
       0.42629722 0.042532902 -0.04592958 0.21742323
000080 6c 65 e5 3c f4 a5 6e bd e1 e1 4b be 41 d4 14 3e
       0.028002463 -0.058263734 -0.19910385 0.14534093
000090 7c 1c 63 3d 9d 65 1e 3e f4 fe 86 bd f4 a5 4b be
       0.055447087 0.1546845 -0.06591597 -0.19887525
0000a0 30 7c 02 c0 f2 a9 8d bf 9a 5a 15 be b1 1d b9 bc
       -2.0388298 -1.1067488 -0.14585343 -0.022597166
0000b0 c5 ee f3 3d 17 0d ba bc 42 b6 23 3d 11 af 12 3e
       0.11910776 -0.02271132 0.039968736 0.14324595
0000c0 24 a3 ba 3c 67 f2 48 3e 22 85 0f be b3 7c 2e 3e
       0.02278287 0.19623719 -0.1401563 0.17039756
0000d0 42 f7 d9 3e 8a b9 d4 be 25 94 f3 3d 1f 72 c8 bd
       0.42571455 -0.41547805 0.11893491 -0.09787392
0000e0 86 ce 3e bd 38 5a 0d c0 07 bd 39 3f a8 bf 8c 3f
       -0.046583675 -2.2086315 0.7255406 1.0995989
0000f0 29 b2 80 3e b9 40 f5 be 17 2a 04 bd 7a cc a4 3f
       0.25135925 -0.47900942 -0.032266703 1.2874901
000100 9e 4d 87 c0 94 58 24 c0 64 d3 9d 3e f8 1a 7a be
       -4.2282248 -2.5679064 0.3082534 -0.2442435
000110 0c 49 0d be bd 4d ce bb 3f 0b dd 3d d9 a9 7d bc
       -0.13797396 -0.006295888 0.10793161 -0.015482389
000120 73 d1 e9 3c 13 28 ea 3a 8b 0d 0b 3d d1 34 32 3c
       0.028542256 0.0017864726 0.033948462 0.01087685
000130 21 23 44 3d 82 ed 1a bd ae 2a a9 bd 61 9b 4c 3e
       0.047885064 -0.03782416 -0.08260094 0.19981147
000140 17 63 99 ba ab 80 98 bd a9 46 f1 3d 0c dd 02 3d
       -0.0011702505 -0.074464165 0.117810555 0.031949088
000150 66 b9 95 3d 0b a1 ba 3d d1 65 f4 bd 7a 50 75 3e
       0.073107526 0.09112748 -0.119334824 0.2395648
000160 ab fa 9c be 56 20 de bc 4a 17 42 3f 53 ee 4b c0
       -0.30659994 -0.027115028 0.75816786 -3.1864212
000170 e7 c9 36 3e 72 e3 8e 3d 23 b8 02 3f 58 af 9f be
       0.17850457 0.069769755 0.5106222 -0.31188464
000180 cf bc ef be e2 96 f3 bf ab ab 9c bf 76 a9 85 3d
       -0.46823737 -1.9030421 -1.2239889 0.06526463
000190 76 f0 f5 bf c8 bf ee bf 0d f5 31 3e 78 4a 4b 3f
       -1.9214008 -1.8652277 0.17378636 0.79410505
0001a0 c1 14 e7 3e 6f c1 e5 be 83 fb 8b bd b0 6b bd 3e
       0.4513302 -0.4487414 -0.068350814 0.36996222
0001b0 29 0b 3f bd 23 0a 6e bd 12 f9 14 bd 23 81 86 3e
       -0.046641503 -0.058115136 -0.036370344 0.26270398
0001c0 86 14 92 bf 78 d3 68 bf 99 9b 9f 3e b6 8d 2c 3f
       -1.1412513 -0.90947676 0.311734 0.67403734
0001d0 0c fa 35 3f c9 31 1a 3d 50 4e 17 3f d9 af 16 3f
       0.71084666 0.037645135 0.5910387 0.5886207
0001e0 3f 46 f0 3d 4d 6a f0 bd 64 34 d7 bd 42 de 43 3e
       0.117321484 -0.11739025 -0.105080396 0.19127753
0001f0 f4 cd 7b 3e 85 d6 63 3e f9 f8 be 3e 69 a5 51 3f
       0.24590284 0.22249801 0.37299326 0.8189302
000200 97 62 ef 3e 8d 2e 2a be 95 5d d9 3d 7e e4 4a 3e
       0.46754906 -0.1661932 0.106135525 0.19813725
000210 f5 2d a0 bd 63 8e 97 3f 0c 9c 96 3f 56 1b 7d bc
       -0.078212656 1.1840328 1.1766372 -0.015448412
000220 c7 22 de bf 5f 4c b1 bf 20 13 81 be 20 2f 3f 3d
       -1.7354363 -1.3851432 -0.25209904 0.0466758
000230 2e 99 08 be 92 d9 90 3e 6f bf 0f 3f b8 d7 17 3f
       -0.13339683 0.28290993 0.5615148 0.59313536
000240 fb 06 ee 3b 0c 8e 52 3f c5 44 88 3e 1c 8e d7 bc
       0.0072640157 0.82247996 0.26614967 -0.02631288
000250 d6 ca 48 3f 0b 26 d8 3e d0 01 ff be 8a b9 4e be
       0.78434503 0.42216524 -0.4980607 -0.20187965
000260 90 12 b8 bd f7 fa 8f bf 73 ee 59 bf 59 ed 7d bf
       -0.089879155 -1.1248463 -0.8512947 -0.9919029
000270 78 5b 50 be ac 18 9b be 87 e3 8e 3d 1a a5 78 be
       -0.20347393 -0.3029226 0.06976991 -0.24281731
000280 31 32 9f be d4 07 c9 bd f4 62 1a bd 15 14 70 3e
       -0.3109298 -0.09815946 -0.037692025 0.2344516
000290 26 c3 96 bd 3b 90 f2 be d3 56 88 be a2 0a f6 bd
       -0.0736144 -0.47375664 -0.26628742 -0.12013747
0002a0 dd 43 56 c0 eb 21 02 c0 08 be bc bf 87 2a f9 bf
       -3.347892 -2.0333202 -1.4745493 -1.9466103
0002b0 e3 1c 12 bf 24 dd 12 bf 10 17 95 be a5 5e 9d be
       -0.5707533 -0.57368684 -0.29119158 -0.3073627
0002c0 c3 06 c1 bd a8 6a 6a be c3 58 86 be 71 2f e3 bd
       -0.09425118 -0.22892249 -0.26239595 -0.11093033
0002d0 e0 94 ef be a7 e8 56 be 1f 6c 7e bd 38 48 54 3e
       -0.4679327 -0.20987187 -0.06211483 0.20730674
0002e0 fc 1a 87 bf 9c a8 44 bf 8c f2 d1 bd 0c 2d 3f bf
       -1.055511 -0.7681978 -0.1025134 -0.7467811
0002f0 b4 3d a1 be b2 1e ae bf 02 e0 5b 3d 71 5a a4 bd
       -0.31492388 -1.3603117 0.053680427 -0.08025063
000300 7f fa d6 3e c1 6d f6 3c 4c 61 ab 3d 76 86 e3 3e
       0.41987988 0.030081632 0.08368167 0.44438523
000310 21 e9 2c be 67 30 19 3f 10 cf 02 bf b0 87 95 3e
       -0.16885807 0.5983948 -0.510972 0.29205084
000320 06 43 83 3d 75 31 c6 be 94 8d 99 3e 70 28 11 bf
       0.06409268 -0.38709608 0.29990828 -0.5670233
000330 84 c1 0a 3f 85 ad 1e be ee 10 c3 be 95 c5 43 bf
       0.5420153 -0.1549588 -0.38098854 -0.7647336
000340 82 99 8c 3e 7f 6b 8c 3b 4b 01 09 c0 cc 72 84 3f
       0.27460867 0.0042852755 -2.140704 1.0347533
000350 d8 a8 76 bf a2 1d 38 3f 7f 25 fb be 45 af be 3e
       -0.96351385 0.71920216 -0.49052045 0.37243095
000360 f2 cd de 3e 40 3a 2c be 42 6a 7b 3f 26 f0 ef be
       0.435165 -0.16819096 0.9820901 -0.46862906
000370 7e 9a b3 3e d7 1d 59 bf 2a a2 32 3f e8 2d 2b be
       0.35078806 -0.84811157 0.6977869 -0.1671673
000380 6d 24 90 3d 6f a4 11 bf 3a d4 cf 3e 03 e3 42 bf
       0.07038198 -0.5689153 0.40591604 -0.7612764
000390 99 67 f3 3e 66 ba da bd 64 7c 69 3e ae 66 20 3f
       0.47539976 -0.10680084 0.22801358 0.62656677
0003a0 f8 9a 2b be c7 c4 dc 3e ee 45 00 3f 7e 15 2e bf
       -0.16758335 0.4311888 0.50106704 -0.68001544
0003b0 ef 43 61 3f 6b 3e 8f bf 6c 0d 43 c0 37 68 27 bf
       0.87994283 -1.1190923 -3.0476942 -0.65393394
0003c0 f3 28 1b 3e 14 6a 69 3e 89 09 0b 3e 34 41 ad bf
       0.1515234 0.22794372 0.13577856 -1.3535523
0003d0 18 20 9d 3f 3f 24 2a be 39 99 84 bd 5a 6f 1d 3e
       1.2275419 -0.1661539 -0.064745374 0.15374509
0003e0 b3 57 a6 3d 1e 5a ce be d3 cb 78 3e 56 1e ef 3d
       0.08122196 -0.4030313 0.24296503 0.11675708
0003f0 e3 62 0b 3e d1 da 13 bd 08 d5 50 3e 76 81 42 bf
       0.13611941 -0.03609735 0.20393765 -0.7597879

encoder_1.nodes_GATConv1.ws__ws_same_room__ws.lin_dst.weight f4 [128, 3]
000000 be 69 90 3d 8b 38 de bc be 29 61 bd 8f 42 ee 3d
       0.07051419 -0.027126571 -0.05497145 0.11633789
000010 9e 54 23 3c fd 3f 02 bd db 8a 8a 3c f0 d8 d1 bc
       0.009968905 -0.031799305 0.016911915 -0.02561614
000020 c8 e4 73 3c 89 ef f9 3d b8 58 07 c0 63 be 8e c0
       0.014886089 0.12203891 -2.11479 -4.4607406
000030 05 99 19 3e 41 ad eb be e9 af 3d bf af a9 0a c0
       0.14999779 -0.4603062 -0.7409654 -2.1666067
000040 7f 0b 05 40 da de 08 bf 78 36 1b 3d 7a ad a7 bc
       2.0788267 -0.53465044 0.037893742 -0.020468462
000050 de eb c6 3d b8 81 a5 bd d8 d3 68 3e 15 f2 8f bd
       0.09712957 -0.080813825 0.22737062 -0.07028595
000060 49 ec b9 3b 36 87 30 3e 91 1a 74 3b 68 66 c9 bd
       0.0056739193 0.17239079 0.003724728 -0.098339856
000070 a1 43 da 3e fb 36 2e 3d a8 20 3c bd 32 a4 5e 3e
       0.42629722 0.042532902 -0.04592958 0.21742323
000080 6c 65 e5 3c f4 a5 6e bd e1 e1 4b be 41 d4 14 3e
       0.028002463 -0.058263734 -0.19910385 0.14534093
000090 7c 1c 63 3d 9d 65 1e 3e f4 fe 86 bd f4 a5 4b be
       0.055447087 0.1546845 -0.06591597 -0.19887525
0000a0 30 7c 02 c0 f2 a9 8d bf 9a 5a 15 be b1 1d b9 bc
       -2.0388298 -1.1067488 -0.14585343 -0.022597166
0000b0 c5 ee f3 3d 17 0d ba bc 42 b6 23 3d 11 af 12 3e
       0.11910776 -0.02271132 0.039968736 0.14324595
0000c0 24 a3 ba 3c 67 f2 48 3e 22 85 0f be b3 7c 2e 3e
       0.02278287 0.19623719 -0.1401563 0.17039756
0000d0 42 f7 d9 3e 8a b9 d4 be 25 94 f3 3d 1f 72 c8 bd
       0.42571455 -0.41547805 0.11893491 -0.09787392
0000e0 86 ce 3e bd 38 5a 0d c0 07 bd 39 3f a8 bf 8c 3f
       -0.046583675 -2.2086315 0.7255406 1.0995989
0000f0 29 b2 80 3e b9 40 f5 be 17 2a 04 bd 7a cc a4 3f
       0.25135925 -0.47900942 -0.032266703 1.2874901
000100 9e 4d 87 c0 94 58 24 c0 64 d3 9d 3e f8 1a 7a be
       -4.2282248 -2.5679064 0.3082534 -0.2442435
000110 0c 49 0d be bd 4d ce bb 3f 0b dd 3d d9 a9 7d bc
       -0.13797396 -0.006295888 0.10793161 -0.015482389
000120 73 d1 e9 3c 13 28 ea 3a 8b 0d 0b 3d d1 34 32 3c
       0.028542256 0.0017864726 0.033948462 0.01087685
000130 21 23 44 3d 82 ed 1a bd ae 2a a9 bd 61 9b 4c 3e
       0.047885064 -0.03782416 -0.08260094 0.19981147
000140 17 63 99 ba ab 80 98 bd a9 46 f1 3d 0c dd 02 3d
       -0.0011702505 -0.074464165 0.117810555 0.031949088
000150 66 b9 95 3d 0b a1 ba 3d d1 65 f4 bd 7a 50 75 3e
       0.073107526 0.09112748 -0.119334824 0.2395648
000160 ab fa 9c be 56 20 de bc 4a 17 42 3f 53 ee 4b c0
       -0.30659994 -0.027115028 0.75816786 -3.1864212
000170 e7 c9 36 3e 72 e3 8e 3d 23 b8 02 3f 58 af 9f be
       0.17850457 0.069769755 0.5106222 -0.31188464
000180 cf bc ef be e2 96 f3 bf ab ab 9c bf 76 a9 85 3d
       -0.46823737 -1.9030421 -1.2239889 0.06526463
000190 76 f0 f5 bf c8 bf ee bf 0d f5 31 3e 78 4a 4b 3f
       -1.9214008 -1.8652277 0.17378636 0.79410505
0001a0 c1 14 e7 3e 6f c1 e5 be 83 fb 8b bd b0 6b bd 3e
       0.4513302 -0.4487414 -0.068350814 0.36996222
0001b0 29 0b 3f bd 23 0a 6e bd 12 f9 14 bd 23 81 86 3e
       -0.046641503 -0.058115136 -0.036370344 0.26270398
0001c0 86 14 92 bf 78 d3 68 bf 99 9b 9f 3e b6 8d 2c 3f
       -1.1412513 -0.90947676 0.311734 0.67403734
0001d0 0c fa 35 3f c9 31 1a 3d 50 4e 17 3f d9 af 16 3f
       0.71084666 0.037645135 0.5910387 0.5886207
0001e0 3f 46 f0 3d 4d 6a f0 bd 64 34 d7 bd 42 de 43 3e
       0.117321484 -0.11739025 -0.105080396 0.19127753
0001f0 f4 cd 7b 3e 85 d6 63 3e f9 f8 be 3e 69 a5 51 3f
       0.24590284 0.22249801 0.37299326 0.8189302
000200 97 62 ef 3e 8d 2e 2a be 95 5d d9 3d 7e e4 4a 3e
       0.46754906 -0.1661932 0.106135525 0.19813725
000210 f5 2d a0 bd 63 8e 97 3f 0c 9c 96 3f 56 1b 7d bc
       -0.078212656 1.1840328 1.1766372 -0.015448412
000220 c7 22 de bf 5f 4c b1 bf 20 13 81 be 20 2f 3f 3d
       -1.7354363 -1.3851432 -0.25209904 0.0466758
000230 2e 99 08 be 92 d9 90 3e 6f bf 0f 3f b8 d7 17 3f
       -0.13339683 0.28290993 0.5615148 0.59313536
000240 fb 06 ee 3b 0c 8e 52 3f c5 44 88 3e 1c 8e d7 bc
       0.0072640157 0.82247996 0.26614967 -0.02631288
000250 d6 ca 48 3f 0b 26 d8 3e d0 01 ff be 8a b9 4e be
       0.78434503 0.42216524 -0.4980607 -0.20187965
000260 90 12 b8 bd f7 fa 8f bf 73 ee 59 bf 59 ed 7d bf
       -0.089879155 -1.1248463 -0.8512947 -0.9919029
000270 78 5b 50 be ac 18 9b be 87 e3 8e 3d 1a a5 78 be
       -0.20347393 -0.3029226 0.06976991 -0.24281731
000280 31 32 9f be d4 07 c9 bd f4 62 1a bd 15 14 70 3e
       -0.3109298 -0.09815946 -0.037692025 0.2344516
000290 26 c3 96 bd 3b 90 f2 be d3 56 88 be a2 0a f6 bd
       -0.0736144 -0.47375664 -0.26628742 -0.12013747
0002a0 dd 43 56 c0 eb 21 02 c0 08 be bc bf 87 2a f9 bf
       -3.347892 -2.0333202 -1.4745493 -1.9466103
0002b0 e3 1c 12 bf 24 dd 12 bf 10 17 95 be a5 5e 9d be
       -0.5707533 -0.57368684 -0.29119158 -0.3073627
0002c0 c3 06 c1 bd a8 6a 6a be c3 58 86 be 71 2f e3 bd
       -0.09425118 -0.22892249 -0.26239595 -0.11093033
0002d0 e0 94 ef be a7 e8 56 be 1f 6c 7e bd 38 48 54 3e
       -0.4679327 -0.20987187 -0.06211483 0.20730674
0002e0 fc 1a 87 bf 9c a8 44 bf 8c f2 d1 bd 0c 2d 3f bf
       -1.055511 -0.7681978 -0.1025134 -0.7467811
0002f0 b4 3d a1 be b2 1e ae bf 02 e0 5b 3d 71 5a a4 bd
       -0.31492388 -1.3603117 0.053680427 -0.08025063
000300 7f fa d6 3e c1 6d f6 3c 4c 61 ab 3d 76 86 e3 3e
       0.41987988 0.030081632 0.08368167 0.44438523
000310 21 e9 2c be 67 30 19 3f 10 cf 02 bf b0 87 95 3e
       -0.16885807 0.5983948 -0.510972 0.29205084
000320 06 43 83 3d 75 31 c6 be 94 8d 99 3e 70 28 11 bf
       0.06409268 -0.38709608 0.29990828 -0.5670233
000330 84 c1 0a 3f 85 ad 1e be ee 10 c3 be 95 c5 43 bf
       0.5420153 -0.1549588 -0.38098854 -0.7647336
000340 82 99 8c 3e 7f 6b 8c 3b 4b 01 09 c0 cc 72 84 3f
       0.27460867 0.0042852755 -2.140704 1.0347533
000350 d8 a8 76 bf a2 1d 38 3f 7f 25 fb be 45 af be 3e
       -0.96351385 0.71920216 -0.49052045 0.37243095
000360 f2 cd de 3e 40 3a 2c be 42 6a 7b 3f 26 f0 ef be
       0.435165 -0.16819096 0.9820901 -0.46862906
000370 7e 9a b3 3e d7 1d 59 bf 2a a2 32 3f e8 2d 2b be
       0.35078806 -0.84811157 0.6977869 -0.1671673
000380 6d 24 90 3d 6f a4 11 bf 3a d4 cf 3e 03 e3 42 bf
       0.07038198 -0.5689153 0.40591604 -0.7612764
000390 99 67 f3 3e 66 ba da bd 64 7c 69 3e ae 66 20 3f
       0.47539976 -0.10680084 0.22801358 0.62656677
0003a0 f8 9a 2b be c7 c4 dc 3e ee 45 00 3f 7e 15 2e bf
       -0.16758335 0.4311888 0.50106704 -0.68001544
0003b0 ef 43 61 3f 6b 3e 8f bf 6c 0d 43 c0 37 68 27 bf
       0.87994283 -1.1190923 -3.0476942 -0.65393394
0003c0 f3 28 1b 3e 14 6a 69 3e 89 09 0b 3e 34 41 ad bf
       0.1515234 0.22794372 0.13577856 -1.3535523
0003d0 18 20 9d 3f 3f 24 2a be 39 99 84 bd 5a 6f 1d 3e
       1.2275419 -0.1661539 -0.064745374 0.15374509
0003e0 b3 57 a6 3d 1e 5a ce be d3 cb 78 3e 56 1e ef 3d
       0.08122196 -0.4030313 0.24296503 0.11675708
0003f0 e3 62 0b 3e d1 da 13 bd 08 d5 50 3e 76 81 42 bf
       0.13611941 -0.03609735 0.20393765 -0.7597879

encoder_1.edges_lin1.ws__ws_same_room__ws.weight f4 [16, 9]
000000 89 90 36 3f 1e b6 3f 3f 8c 11 3e 3d 84 e9 b1 3e
       0.71314293 0.74887264 0.046403453 0.3474847
000010 25 02 d9 3d 1e f3 25 bf 3e ae 11 c0 d2 3b 9d 3f
       0.10596112 -0.6482409 -2.27626 1.2283881
000020 94 3c 8f 3f a4 ec 4b bf 68 e9 9f be 8c b1 83 bf
       1.1190362 -0.7965796 -0.31232762 -1.0288558
000030 e5 99 d8 3e fb ef ee 3e 47 5e 69 3f 76 af af be
       0.42304912 0.46667466 0.9115948 -0.34313554
000040 42 51 ec bf 77 e7 a5 c0 80 7b 5a 3f 2c d6 0f 3f
       -1.8462298 -5.184505 0.85344696 0.56186175
000050 aa 31 f2 3e 49 88 52 3f 99 75 06 3f 83 02 aa bf
       0.47303516 0.82239205 0.5252319 -1.3282017
000060 0c e6 24 c0 a5 32 05 3d 19 02 5a 40 d4 ad ff be
       -2.576541 0.032519 3.406378 -0.49937308
000070 a1 24 35 be 8a 9d a2 3f 35 6f b2 bf 62 f1 d3 be
       -0.17689754 1.2704327 -1.3940188 -0.41395098
000080 bc df 2a bf a9 c8 81 bf f0 77 ee bc 5e 83 92 40
       -0.6674764 -1.0139362 -0.029109925 4.578536
000090 4e 82 fa 3e ef 2a cd 3f fb 5e 9b bf 16 27 a9 3e
       0.4892754 1.6028727 -1.2138361 0.33037633
0000a0 5c 40 e4 be 6f a1 c4 bd 79 95 ae 3f 5c 17 94 40
       -0.44580352 -0.096011035 1.3639365 4.6278515
0000b0 08 35 2e c0 2d 4c ee 3e 1e 49 91 be e8 43 0f 3e
       -2.7219868 0.46542493 -0.28376096 0.13990748
0000c0 77 3f 2c 3e 5f f9 87 bf b7 51 41 3f f9 58 97 c0
       0.16821085 -1.0622977 0.7551531 -4.729611
0000d0 e7 0a ec 3f 25 b2 1a c0 ac 96 06 3f 43 f4 5e be
       1.8440827 -2.417123 0.5257366 -0.21772866
0000e0 92 ab 1e 3d d4 96 a9 3f 46 cd d3 3f 20 39 88 bf
       0.03873784 1.3249154 1.654702 -1.0642433
0000f0 bc 5d 35 c0 5e 7a 51 c0 f8 4c 1d 40 ab 94 cb be
       -2.833846 -3.2730937 2.4578228 -0.39761862
000100 ee b1 50 bf 4f 35 b3 bd cb 53 a6 3f 0c f1 d4 3f
       -0.815215 -0.08750402 1.2994322 1.6636062
000110 3e 03 0b bf c7 54 f6 be 8d eb af c0 13 51 da 3f
       -0.5430182 -0.48111555 -5.4975038 1.7055992
000120 d1 77 3a bd c7 b8 b9 3f 59 1a 68 bf 42 1e 45 3f
       -0.045524422 1.4509515 -0.90665203 0.76999295
000130 f0 78 15 be f9 bf 84 3d 45 2a 75 bf bb 02 35 40
       -0.14596915 0.064819284 -0.95767623 2.8282917
000140 de 24 13 c0 f0 b1 98 3c d4 bd 23 3e cd 1a 75 3e
       -2.2991252 0.018639535 0.15990382 0.23936005
000150 b3 59 5b bf f4 2c a2 bf 71 bb e5 3e 9b 68 39 c0
       -0.85683745 -1.2669969 0.4486957 -2.8970096
000160 2b 33 15 40 4a a4 a1 be 8b 93 5d 40 6f 2f c2 be
       2.331248 -0.31570655 3.4621303 -0.37926814
000170 34 c1 97 3f b6 e3 12 40 fe 74 df bf 84 10 a7 3f
       1.1855836 2.2951484 -1.7457578 1.3051915
000180 c2 99 44 c0 22 31 e3 3f 2f bc 20 3f 0b 8b 95 3f
       -3.0718846 1.7749369 0.62787145 1.1683058
000190 04 ab dc 3e 51 17 be be 68 ad 8d 3f 59 63 82 be
       0.43099225 -0.37127164 1.1068544 -0.2546642
0001a0 46 b9 31 3f 18 3a fd bf af b7 5b 3f 8b 17 7d c0
       0.6942333 -1.9783354 0.85827154 -3.954562
0001b0 2e 6b 56 be e8 bf 8d be f5 a4 88 3f 4f af ce be
       -0.20939323 -0.27685475 1.0675341 -0.40368125
0001c0 d7 62 67 bd c3 cc 69 bf 33 ca a9 c0 0f 77 7e bf
       -0.056490745 -0.91328067 -5.3059325 -0.9940042
0001d0 e2 08 60 40 d4 f7 cf 3e 16 57 e7 3e 23 f3 8c bc
       3.5005422 0.40618765 0.4518363 -0.01720578
0001e0 19 b7 bb 3e 98 43 04 3f 82 03 05 bf 67 27 34 c0
       0.3666313 0.5166564 -0.5195848 -2.814905
0001f0 14 cd ed be 31 d4 be 3f 8d ea 96 be d3 2d ba 3f
       -0.46445525 1.4908506 -0.29475823 1.4545234
000200 fe 0e 3e 3f 8c 5a 55 3f 53 0a 79 3e 85 66 9c bf
       0.74241626 0.8334129 0.24320345 -1.2218786
000210 c8 6f 92 bf 18 73 8f bf 51 ee f9 3f 48 88 80 be
       -1.1440363 -1.1206999 1.9525853 -0.25103974
000220 20 df cb bf 25 57 49 3f 1d b5 69 be 3f cb 61 3e
       -1.5927467 0.78648597 -0.22822995 0.22050188
000230 79 32 6c be e7 0e 2f 40 98 ed a1 c0 1f 44 1b 40
       -0.23066129 2.7352846 -5.060253 2.4260328

encoder_1.edges_lin1.ws__ws_same_room__ws.bias f4 [16]
000000 aa 96 84 bf e6 fb 40 40 b9 2f f2 bf b9 c3 e5 bf
       -1.0358479 3.0153747 -1.8920814 -1.7950355
000010 7a 3e 7b bf 65 15 b1 3f d4 c0 ba 3d 14 41 9a 3f
       -0.98142207 1.3834654 0.0911881 1.205111
000020 e4 66 a4 bd 45 45 a7 3e 40 fc 1f bf 62 9f bb 3f
       -0.08027437 0.32670036 -0.6249428 1.4658015
000030 5b 2c f2 be 10 43 ad be 65 ed 29 bf 50 e7 0f 3f
       -0.47299466 -0.33840227 -0.6637786 0.5621233

encoder_2.nodes_GATConv1.ws__ws_same_room__ws.att_src f4 [1, 1, 16]
000000 32 3d 6b bf 08 11 90 3f 98 2c 8e bf 38 38 65 3f
       -0.9189025 1.1255198 -1.1107359 0.8953891
000010 5e 71 39 c0 5f af eb 3e ee d8 8e bf 86 a8 26 c0
       -2.8975444 0.46032235 -1.1159952 -2.6040359
000020 f6 8f ee bf 6e 05 8e bf 5a 7d 00 3f 5b 62 f3 bf
       -1.8637683 -1.1095407 0.5019127 -1.9014391
000030 2b cb 2f c0 e4 65 3b c0 81 c2 b1 bf 14 48 97 bf
       -2.7467754 -2.928094 -1.3887483 -1.1818871

encoder_2.nodes_GATConv1.ws__ws_same_room__ws.att_dst f4 [1, 1, 16]
000000 f4 3f 77 40 56 86 fc 3f c7 3a 21 40 40 b8 eb 3f
       3.8632784 1.9728496 2.5192125 1.8415604
000010 31 08 00 40 d4 dc 84 40 76 39 a8 3f f2 7f b0 be
       2.0005 4.1519566 1.3142536 -0.34472615
000020 5c a0 62 40 ea 85 28 40 91 9c b0 3f 84 36 ae 40
       3.5410376 2.6331735 1.379778 5.4441547
000030 b1 d7 93 40 d3 45 b6 3f 99 93 17 40 d3 67 8f 40
       4.6200795 1.4240059 2.3683836 4.481424

encoder_2.nodes_GATConv1.ws__ws_same_room__ws.bias f4 [16]
000000 f7 b0 bb c0 23 2b a8 c0 2a b0 85 c0 52 39 e7 c0
       -5.865352 -5.2552657 -4.1777544 -7.225747
000010 c4 29 7e c0 49 f3 8e c0 ce 55 b2 c0 2b 38 94 c0
       -3.9712992 -4.467198 -5.572974 -4.6318564
000020 d4 42 96 c0 2a eb 85 c0 c9 6f 15 c0 c3 94 ac c0
       -4.6956577 -4.1849566 -2.3349478 -5.3931594
000030 36 29 9d c0 a2 5d c2 bf be f7 a4 c0 56 89 b9 c0
       -4.9112806 -1.5184824 -5.155242 -5.7980146

encoder_2.nodes_GATConv1.ws__ws_same_room__ws.lin_src.weight f4 [16, 128]
000000 d6 48 13 3f 53 39 7e 3f cf 8d 81 3f 55 c2 13 40
       0.57533014 0.9930622 1.0121402 2.308736
000010 2b b1 5a 3e b0 e2 1b 40 74 7c 03 40 c0 09 e2 3f
       0.21356647 2.435711 2.054471 1.7659225
000020 5c 02 2c 3f 6f ab 4d 3f 59 28 2d 3f fe c6 06 40
       0.671911 0.8033971 0.6763969 2.1058955
000030 db 59 e3 3e 84 a7 0a bf fd 6a 8c 3f 2c 8c 18 3f
       0.44404492 -0.5416186 1.097015 0.59588885
000040 1b 55 d4 3e 11 db cb 3e 3c be 34 3f fb 29 11 40
       0.4147118 0.39815572 0.70602775 2.2681873
000050 52 5f 93 bf 35 a5 96 be 8b 73 c1 3f 32 6d 1b 3e
       -1.1513464 -0.29422918 1.5113386 0.15178373
000060 b3 71 2f 3f 5a 08 e7 3e 21 53 03 40 61 79 4b 3e
       0.68532866 0.4512356 2.0519488 0.19870521
000070 3a 26 87 3f 59 6a c1 3f c3 fb 8e 3f 96 6c 4d 3f
       1.0558541 1.511058 1.1170582 0.80243814
000080 ce 36 0e bf 4b 85 ec 3e ad 35 d3 3e 6a 64 bc 3f
       -0.55552375 0.46195444 0.4125189 1.4718144
000090 3f 9a 3c bf ee 98 28 3e 5d cf 62 3d 7e 67 4e 3f
       -0.7367286 0.16464588 0.05537354 0.80626667
0000a0 eb ac b2 be 50 9f 8d 3f 2c fb f2 3e 23 18 85 3e
       -0.3489755 1.1064243 0.47457254 0.25994977
0000b0 6e 97 51 3c 1f 2d d3 be 0c e3 d1 be 92 58 db 3d
       0.012792451 -0.41245362 -0.40993536 0.10710253
0000c0 04 60 af 3e 60 51 22 3f 23 84 98 3f bc fe 08 c0
       0.34252942 0.6340542 1.1915325 -2.1405478
0000d0 9c d2 9e 3f d6 8f ec 3f 4a 3b 95 be 21 96 13 40
       1.2408023 1.8481395 -0.29146796 2.3060381
0000e0 25 35 00 c0 29 22 e5 bf 87 e8 a4 3f cf dc c7 3f
       -2.0032437 -1.790105 1.2883462 1.561426
0000f0 1c c6 70 3f 13 c8 33 bf 6f 76 81 3d 55 36 02 c0
       0.9405229 -0.70227164 0.063214175 -2.0345662
000100 80 0b c1 3e 57 31 f6 3f f5 c1 ae 3e 9c fb 1a 3e
       0.37704086 1.9233807 0.34132352 0.15135044
000110 9d d5 94 bf 5e 90 8c 3f 11 b5 06 40 ab 45 0b bf
       -1.162769 1.0981557 2.1048014 -0.5440318
000120 64 f1 9f 3f ad db 77 3e 91 40 80 3e 09 f8 12 bd
       1.2495542 0.24204893 0.2504926 -0.035881076
000130 1a 86 67 bd 4c fe 82 3d 90 f9 91 3f f4 5c 76 40
       -0.056524374 0.063961595 1.1404285 3.8494234
000140 16 e3 8d 3e 45 f9 1a bf b0 17 20 bf ef 83 5d 3f
       0.27712315 -0.60536605 -0.62536144 0.8652944
000150 2f e6 b3 3f 5a 4e c1 3f cf f7 2e 40 6f c8 bc 3f
       1.4054621 1.5102036 2.733875 1.4748667
000160 26 17 45 bf 0f 9d c6 3f ed f2 cb be 9d 10 b1 3f
       -0.76988447 1.551668 -0.39833775 1.3833195
000170 4f 71 13 3f 9e 10 85 bf a0 b2 0b 3e b4 90 25 3f
       0.5759477 -1.0395696 0.13642359 0.64673924
000180 62 03 53 3e 78 b6 92 3f 9b a7 8e bd 20 b4 2f 3f
       0.20606759 1.1461935 -0.06965562 0.68634224
000190 06 41 da 3e a5 53 3b bf 07 c1 a3 3e 57 84 0c 3f
       0.42627734 -0.73174506 0.31983206 0.54889435
0001a0 d8 0d 87 be 61 b6 22 3f d9 9c 34 3f 19 9a 37 bf
       -0.2637775 0.6355954 0.7055183 -0.7171951
0001b0 fa 9c c6 be a4 8d d3 bf 7e d3 b8 be e0 86 9c 3f
       -0.3879164 -1.65276 -0.36098856 1.222866
0001c0 e4 d0 11 3f 4e 74 8b 3f 72 63 87 3f 60 df 30 bf
       0.56959367 1.0894868 1.0577223 -0.69090843
0001d0 e7 00 82 3f a5 d4 2c bf 64 6b 05 c0 7b cf b8 3f
       1.0156525 -0.6751197 -2.0846796 1.4438318
0001e0 51 c3 c6 be 25 c9 16 bf d3 8b 8b bf 03 34 89 3f
       -0.3882089 -0.5890067 -1.0902046 1.0718998
0001f0 ce 29 ca be 1c 7b 58 3e 77 66 a8 3f 5a e5 1c 3f
       -0.3948502 0.21140712 1.315627 0.6128746
000200 f1 07 7d 3f ea 75 d0 3f 08 83 71 bd 3f e1 9f 3f
       0.9884024 1.6285985 -0.05896285 1.2490615
000210 81 0f ec 3f c1 15 05 40 0f 91 4c bf 37 5f b5 3f
       1.8442231 2.0794528 -0.7990884 1.4169682
000220 f2 ed 93 bf 81 24 23 3f 95 2a 8d bf c6 c0 9d 3f
       -1.155699 0.63727576 -1.102862 1.2324455
000230 0d 4c 90 bd 95 b2 b4 bf 0c 55 76 3f 2d 29 8e bf
       -0.070457555 -1.4116999 0.9622352 -1.1106316
000240 e5 e1 ea 3e 3c 65 c8 3f 0e 2c b0 3e fd 04 20 be
       0.4587547 1.5655894 0.3440861 -0.15626903
000250 f6 e4 2e bf e5 2d 12 3f c5 21 89 3f b3 24 84 3f
       -0.68318117 0.5710128 1.0713431 1.03237
000260 19 41 35 3f ba c9 72 3f dd 96 f7 3f 8b 23 ae 3f
       0.70802456 0.9483906 1.9342915 1.3604597
000270 6d d5 04 3f 37 57 9f 3f 81 49 2f bf dd f2 b5 3f
       0.5188816 1.2448491 -0.68471533 1.4214741
000280 c4 14 f7 be ed 6e b8 be fc a2 a7 bd 0b 48 de bf
       -0.4825803 -0.3602213 -0.08185384 -1.7365736
000290 d7 ea 24 bf fa bc d1 3f 9c f8 24 3f 80 98 b4 3d
       -0.6442084 1.6385796 0.6444185 0.088181496
0002a0 39 ce 06 3e e9 03 a7 3e 3b 7f a5 3e 38 4f 92 3c
       0.13164605 0.3262017 0.32323632 0.01786004
0002b0 e2 82 dd 3d f0 fc 8b 3e 4c 51 ce 3e c5 59 a5 3e
       0.108159795 0.27341413 0.402964 0.3229505
0002c0 40 90 08 3f b4 1d 07 3f 7b e3 4f 3f db 17 68 be
       0.5334511 0.527797 0.8120648 -0.2266535
0002d0 bb 9b 87 3f 90 50 75 3f b1 f0 c8 3e c0 02 58 3f
       1.05944 0.95826054 0.39246133 0.84379196
0002e0 cd af ca be b4 cd f6 be ce a5 0f 40 9c b4 fb be
       -0.3958725 -0.48203814 2.244495 -0.49161232
0002f0 13 7a 4d 3f f6 08 3f bf 55 40 8c 3f 2c 62 8e be
       0.80264395 -0.7462305 1.0957133 -0.27809274
000300 db ae a0 3f f7 8e c4 3d c8 3a c7 3f 90 09 9e 3e
       1.2553362 0.09597581 1.5564814 0.3086667
000310 71 1e 7f bf 66 4f 0c 40 ea 4b 30 40 e8 c5 b0 bf
       -0.99655825 2.192346 2.7546334 -1.3810396
000320 82 00 22 3f 4a 3a 07 3f 74 bf 26 bf fa d5 32 3f
       0.63282025 0.5282332 -0.65135884 0.6985775
000330 f0 45 a5 3e 17 72 4f 3e 2c 1d 19 3f 45 09 91 40
       0.3227992 0.20258366 0.5981014 4.5323815
000340 3c e4 da bd f0 b5 9d be f6 a4 82 3e cb 74 2b be
       -0.106880635 -0.3080287 0.2551648 -0.16743772
000350 64 eb 88 be c4 60 64 3f d3 28 48 40 2a 3b 6e 3f
       -0.2674209 0.8921015 3.1274917 0.9305903
000360 8c fe f4 be 2c f3 70 3f e5 f9 15 3f 24 96 a0 3e
       -0.47850454 0.9412105 0.58584434 0.31364548
000370 cf 23 ff be f7 6d c1 be 58 87 2a bf e9 5c 5b 3e
       -0.49832007 -0.3777921 -0.6661277 0.21422161
000380 e6 68 83 bf 98 64 17 40 24 b6 f8 3e cb 13 91 3f
       -1.0266387 2.3655148 0.48576462 1.1334165
000390 07 1a 90 bf 03 c4 c6 be fa 28 4b 3f 41 f9 ad bf
       -1.1257943 -0.3882142 0.793594 -1.3591691
0003a0 7e 1b a0 be b1 d6 83 3f 4f b5 4e 3f ed 6a 2f bf
       -0.31270975 1.0299894 0.80745405 -0.6852253
0003b0 70 67 47 bf ad 0f 9a be 61 40 48 bf 54 15 de 3f
       -0.7789221 -0.30090085 -0.78223234 1.7350259
0003c0 7f ca 61 3f e8 1b 2b 3f b4 4f 9f 3e 72 03 07 3f
       0.8819961 0.66839457 0.31115496 0.5273963
0003d0 a3 cd f5 3f 7d f8 2d 3f 68 41 e6 be 3b bb 19 3f
       1.920338 0.6795729 -0.44971776 0.60051316
0003e0 ac 18 3a 3f 7b 97 8a bf 39 a3 86 3f 6c af 26 40
       0.72693896 -1.0827478 1.0518562 2.604457
0003f0 19 a9 8c 3f 48 0c 27 3f ef 0e 92 3f 4b 4e 98 3f
       1.0989105 0.65253115 1.1410807 1.1898893

encoder_2.nodes_GATConv1.ws__ws_same_room__ws.lin_dst.weight f4 [16, 128]
000000 d6 48 13 3f 53 39 7e 3f cf 8d 81 3f 55 c2 13 40
       0.57533014 0.9930622 1.0121402 2.308736
000010 2b b1 5a 3e b0 e2 1b 40 74 7c 03 40 c0 09 e2 3f
       0.21356647 2.435711 2.054471 1.7659225
000020 5c 02 2c 3f 6f ab 4d 3f 59 28 2d 3f fe c6 06 40
       0.671911 0.8033971 0.6763969 2.1058955
000030 db 59 e3 3e 84 a7 0a bf fd 6a 8c 3f 2c 8c 18 3f
       0.44404492 -0.5416186 1.097015 0.59588885
000040 1b 55 d4 3e 11 db cb 3e 3c be 34 3f fb 29 11 40
       0.4147118 0.39815572 0.70602775 2.2681873
000050 52 5f 93 bf 35 a5 96 be 8b 73 c1 3f 32 6d 1b 3e
       -1.1513464 -0.29422918 1.5113386 0.15178373
000060 b3 71 2f 3f 5a 08 e7 3e 21 53 03 40 61 79 4b 3e
       0.68532866 0.4512356 2.0519488 0.19870521
000070 3a 26 87 3f 59 6a c1 3f c3 fb 8e 3f 96 6c 4d 3f
       1.0558541 1.511058 1.1170582 0.80243814
000080 ce 36 0e bf 4b 85 ec 3e ad 35 d3 3e 6a 64 bc 3f
       -0.55552375 0.46195444 0.4125189 1.4718144
000090 3f 9a 3c bf ee 98 28 3e 5d cf 62 3d 7e 67 4e 3f
       -0.7367286 0.16464588 0.05537354 0.80626667
0000a0 eb ac b2 be 50 9f 8d 3f 2c fb f2 3e 23 18 85 3e
       -0.3489755 1.1064243 0.47457254 0.25994977
0000b0 6e 97 51 3c 1f 2d d3 be 0c e3 d1 be 92 58 db 3d
       0.012792451 -0.41245362 -0.40993536 0.10710253
0000c0 04 60 af 3e 60 51 22 3f 23 84 98 3f bc fe 08 c0
       0.34252942 0.6340542 1.1915325 -2.1405478
0000d0 9c d2 9e 3f d6 8f ec 3f 4a 3b 95 be 21 96 13 40
       1.2408023 1.8481395 -0.29146796 2.3060381
0000e0 25 35 00 c0 29 22 e5 bf 87 e8 a4 3f cf dc c7 3f
       -2.0032437 -1.790105 1.2883462 1.561426
0000f0 1c c6 70 3f 13 c8 33 bf 6f 76 81 3d 55 36 02 c0
       0.9405229 -0.70227164 0.063214175 -2.0345662
000100 80 0b c1 3e 57 31 f6 3f f5 c1 ae 3e 9c fb 1a 3e
       0.37704086 1.9233807 0.34132352 0.15135044
000110 9d d5 94 bf 5e 90 8c 3f 11 b5 06 40 ab 45 0b bf
       -1.162769 1.0981557 2.1048014 -0.5440318
000120 64 f1 9f 3f ad db 77 3e 91 40 80 3e 09 f8 12 bd
       1.2495542 0.24204893 0.2504926 -0.035881076
000130 1a 86 67 bd 4c fe 82 3d 90 f9 91 3f f4 5c 76 40
       -0.056524374 0.063961595 1.1404285 3.8494234
000140 16 e3 8d 3e 45 f9 1a bf b0 17 20 bf ef 83 5d 3f
       0.27712315 -0.60536605 -0.62536144 0.8652944
000150 2f e6 b3 3f 5a 4e c1 3f cf f7 2e 40 6f c8 bc 3f
       1.4054621 1.5102036 2.733875 1.4748667
000160 26 17 45 bf 0f 9d c6 3f ed f2 cb be 9d 10 b1 3f
       -0.76988447 1.551668 -0.39833775 1.3833195
000170 4f 71 13 3f 9e 10 85 bf a0 b2 0b 3e b4 90 25 3f
       0.5759477 -1.0395696 0.13642359 0.64673924
000180 62 03 53 3e 78 b6 92 3f 9b a7 8e bd 20 b4 2f 3f
       0.20606759 1.1461935 -0.06965562 0.68634224
000190 06 41 da 3e a5 53 3b bf 07 c1 a3 3e 57 84 0c 3f
       0.42627734 -0.73174506 0.31983206 0.54889435
0001a0 d8 0d 87 be 61 b6 22 3f d9 9c 34 3f 19 9a 37 bf
       -0.2637775 0.6355954 0.7055183 -0.7171951
0001b0 fa 9c c6 be a4 8d d3 bf 7e d3 b8 be e0 86 9c 3f
       -0.3879164 -1.65276 -0.36098856 1.222866
0001c0 e4 d0 11 3f 4e 74 8b 3f 72 63 87 3f 60 df 30 bf
       0.56959367 1.0894868 1.0577223 -0.69090843
0001d0 e7 00 82 3f a5 d4 2c bf 64 6b 05 c0 7b cf b8 3f
       1.0156525 -0.6751197 -2.0846796 1.4438318
0001e0 51 c3 c6 be 25 c9 16 bf d3 8b 8b bf 03 34 89 3f
       -0.3882089 -0.5890067 -1.0902046 1.0718998
0001f0 ce 29 ca be 1c 7b 58 3e 77 66 a8 3f 5a e5 1c 3f
       -0.3948502 0.21140712 1.315627 0.6128746
000200 f1 07 7d 3f ea 75 d0 3f 08 83 71 bd 3f e1 9f 3f
       0.9884024 1.6285985 -0.05896285 1.2490615
000210 81 0f ec 3f c1 15 05 40 0f 91 4c bf 37 5f b5 3f
       1.8442231 2.0794528 -0.7990884 1.4169682
000220 f2 ed 93 bf 81 24 23 3f 95 2a 8d bf c6 c0 9d 3f
       -1.155699 0.63727576 -1.102862 1.2324455
000230 0d 4c 90 bd 95 b2 b4 bf 0c 55 76 3f 2d 29 8e bf
       -0.070457555 -1.4116999 0.9622352 -1.1106316
000240 e5 e1 ea 3e 3c 65 c8 3f 0e 2c b0 3e fd 04 20 be
       0.4587547 1.5655894 0.3440861 -0.15626903
000250 f6 e4 2e bf e5 2d 12 3f c5 21 89 3f b3 24 84 3f
       -0.68318117 0.5710128 1.0713431 1.03237
000260 19 41 35 3f ba c9 72 3f dd 96 f7 3f 8b 23 ae 3f
       0.70802456 0.9483906 1.9342915 1.3604597
000270 6d d5 04 3f 37 57 9f 3f 81 49 2f bf dd f2 b5 3f
       0.5188816 1.2448491 -0.68471533 1.4214741
000280 c4 14 f7 be ed 6e b8 be fc a2 a7 bd 0b 48 de bf
       -0.4825803 -0.3602213 -0.08185384 -1.7365736
000290 d7 ea 24 bf fa bc d1 3f 9c f8 24 3f 80 98 b4 3d
       -0.6442084 1.6385796 0.6444185 0.088181496
0002a0 39 ce 06 3e e9 03 a7 3e 3b 7f a5 3e 38 4f 92 3c
       0.13164605 0.3262017 0.32323632 0.01786004
0002b0 e2 82 dd 3d f0 fc 8b 3e 4c 51 ce 3e c5 59 a5 3e
       0.108159795 0.27341413 0.402964 0.3229505
0002c0 40 90 08 3f b4 1d 07 3f 7b e3 4f 3f db 17 68 be
       0.5334511 0.527797 0.8120648 -0.2266535
0002d0 bb 9b 87 3f 90 50 75 3f b1 f0 c8 3e c0 02 58 3f
       1.05944 0.95826054 0.39246133 0.84379196
0002e0 cd af ca be b4 cd f6 be ce a5 0f 40 9c b4 fb be
       -0.3958725 -0.48203814 2.244495 -0.49161232
0002f0 13 7a 4d 3f f6 08 3f bf 55 40 8c 3f 2c 62 8e be
       0.80264395 -0.7462305 1.0957133 -0.27809274
000300 db ae a0 3f f7 8e c4 3d c8 3a c7 3f 90 09 9e 3e
       1.2553362 0.09597581 1.5564814 0.3086667
000310 71 1e 7f bf 66 4f 0c 40 ea 4b 30 40 e8 c5 b0 bf
       -0.99655825 2.192346 2.7546334 -1.3810396
000320 82 00 22 3f 4a 3a 07 3f 74 bf 26 bf fa d5 32 3f
       0.63282025 0.5282332 -0.65135884 0.6985775
000330 f0 45 a5 3e 17 72 4f 3e 2c 1d 19 3f 45 09 91 40
       0.3227992 0.20258366 0.5981014 4.5323815
000340 3c e4 da bd f0 b5 9d be f6 a4 82 3e cb 74 2b be
       -0.106880635 -0.3080287 0.2551648 -0.16743772
000350 64 eb 88 be c4 60 64 3f d3 28 48 40 2a 3b 6e 3f
       -0.2674209 0.8921015 3.1274917 0.9305903
000360 8c fe f4 be 2c f3 70 3f e5 f9 15 3f 24 96 a0 3e
       -0.47850454 0.9412105 0.58584434 0.31364548
000370 cf 23 ff be f7 6d c1 be 58 87 2a bf e9 5c 5b 3e
       -0.49832007 -0.3777921 -0.6661277 0.21422161
000380 e6 68 83 bf 98 64 17 40 24 b6 f8 3e cb 13 91 3f
       -1.0266387 2.3655148 0.48576462 1.1334165
000390 07 1a 90 bf 03 c4 c6 be fa 28 4b 3f 41 f9 ad bf
       -1.1257943 -0.3882142 0.793594 -1.3591691
0003a0 7e 1b a0 be b1 d6 83 3f 4f b5 4e 3f ed 6a 2f bf
       -0.31270975 1.0299894 0.80745405 -0.6852253
0003b0 70 67 47 bf ad 0f 9a be 61 40 48 bf 54 15 de 3f
       -0.7789221 -0.30090085 -0.78223234 1.7350259
0003c0 7f ca 61 3f e8 1b 2b 3f b4 4f 9f 3e 72 03 07 3f
       0.8819961 0.66839457 0.31115496 0.5273963
0003d0 a3 cd f5 3f 7d f8 2d 3f 68 41 e6 be 3b bb 19 3f
       1.920338 0.6795729 -0.44971776 0.60051316
0003e0 ac 18 3a 3f 7b 97 8a bf 39 a3 86 3f 6c af 26 40
       0.72693896 -1.0827478 1.0518562 2.604457
0003f0 19 a9 8c 3f 48 0c 27 3f ef 0e 92 3f 4b 4e 98 3f
       1.0989105 0.65253115 1.1410807 1.1898893

encoder_2.edges_lin1.ws__ws_same_room__ws.weight f4 [16, 272]
000000 2b 8e 2f bf a1 35 33 3e f7 4a d6 3e 7d 96 64 c0
       -0.68576306 0.17500927 0.4185407 -3.571685
000010 8a 97 25 c0 7d fb 97 bf 54 63 a5 bd 10 01 3f bf
       -2.5873742 -1.1873623 -0.08075586 -0.74610996
000020 00 73 d8 3f 3f cd 2d 3f e6 44 93 3f e8 e3 f6 be
       1.6910095 0.67891306 1.1505401 -0.48220754
000030 70 0c cb 3d 6b 51 19 c0 34 04 28 bf 2b 66 32 3f
       0.09914482 -2.3955944 -0.65631413 0.69687146
000040 b5 58 66 be 83 6d 1f be 92 13 ce be ea 1d 64 be
       -0.22494777 -0.15569119 -0.40249306 -0.22277036
000050 e3 b6 c7 be 8f 3c b9 3e a5 0b 94 bf 2f fe 53 3e
       -0.3900672 0.36179015 -1.1566054 0.20702432
000060 3e 88 32 bf 66 bf 3d be 5e 9b ee 3e 5b 32 3a be
       -0.6973914 -0.18530044 0.4660291 -0.18183272
000070 54 6b d5 be 83 53 1d bf 84 a4 d0 bf 8d 53 6d bd
       -0.41683447 -0.61455554 -1.6300206 -0.05794101
000080 92 63 08 40 00 97 e1 3f 15 08 dd bf f9 83 51 3d
       2.1310773 1.7624207 -1.7268091 0.05115125
000090 81 45 28 be 04 76 4b 3f bb a2 bd bf 09 50 bb bf
       -0.16432764 0.7947695 -1.4815286 -1.46338
0000a0 9f 22 f5 3e 02 26 7d bf 5d dc ce bf d1 bd be be
       0.47877976 -0.9888612 -1.6161 -0.37254193
0000b0 26 ea aa bf 2e 9e 07 40 b2 ea 37 bf 25 df bb bf
       -1.3352706 2.1190295 -0.7184249 -1.4677473
0000c0 ec 32 30 bf e0 8f b0 bf 73 68 b0 3d 83 ae 18 c0
       -0.688277 -1.3793907 0.08613672 -2.3856514
0000d0 dc ba 80 3e cf 06 40 3e a0 90 27 3f c9 0b a1 3e
       0.25142562 0.18752597 0.65455055 0.31454304
0000e0 79 fb 79 c0 e8 40 f7 bf 61 99 3c be ca df bb 3e
       -3.9059737 -1.9316683 -0.18417884 0.36694175
0000f0 ec 8b 37 be 3a 00 23 c0 7c 4e ad 3f fb 13 fb be
       -0.1792447 -2.5468888 1.3539577 -0.4903868
000100 9f fc fa be 3a 14 ff bf de de 30 3e 96 06 ef 3e
       -0.4902086 -1.9928048 0.17272517 0.46684712
000110 72 e9 34 bf 50 3f 77 bf be 82 ae be 20 10 ef be
       -0.7066871 -0.9658098 -0.34084123 -0.4669199
000120 a5 33 09 c0 9e 33 3d 3f 02 48 a8 bf 6e 71 44 3f
       -2.1437771 0.73906887 -1.3146975 0.7673558
000130 37 f3 09 bf cc d5 45 3f b2 85 d8 bf 72 51 46 bf
       -0.5388674 0.77279353 -1.69158 -0.77468026
000140 ff 01 62 bf 45 bf 15 c0 dd fa fa bd 93 ce 94 be
       -0.88284296 -2.3397992 -0.122548796 -0.29063854
000150 4a 1c 0a bf 8f e5 6b 40 3a cd 3e 40 65 28 10 40
       -0.53949416 3.6858861 2.981276 2.2524655
000160 b8 78 c2 3c dd 98 d1 be 73 8f ef bf 29 d8 99 be
       0.023739204 -0.40936938 -1.8715652 -0.3004773
000170 0b 98 14 bf 9b 04 74 bf c3 6f 25 3f ee ed 8b 3f
       -0.580445 -0.9531953 0.6462366 1.0931985
000180 cc d7 89 3f bf 0d c0 be ce 68 a7 bf 26 5b 5b bf
       1.0768981 -0.37510487 -1.3078859 -0.85685956
000190 85 db d3 3e 8c b1 ac 3f b7 ac e7 be 86 d7 91 3e
       0.41378418 1.3491683 -0.45248958 0.28484744
0001a0 57 93 3c 3f e3 0d 6f 3d 2c 4e 92 bf e2 43 95 3f
       0.7366232 0.058362853 -1.1430106 1.1661341
0001b0 29 65 02 40 25 16 60 3f 1f cd b3 3f eb 90 63 bf
       2.0374243 0.8753379 1.4046973 -0.88893
0001c0 4d 56 63 bf db 7b be bf ba cf 43 bf 9b c2 03 3f
       -0.8880356 -1.4881548 -0.7648884 0.5146882
0001d0 65 03 87 3f dd 72 64 3f 06 a0 17 3f 12 62 53 bf
       1.0547911 0.8923777 0.5922855 -0.8257152
0001e0 1f e9 9c 3e d9 79 d9 be d1 c9 12 3f 48 3a 8e 3f
       0.30646607 -0.42475775 0.573392 1.1111536
0001f0 c8 bb 12 3f 08 f8 d3 3e db eb f2 3e 76 44 dd bd
       0.5731778 0.4140017 0.47445568 -0.108040735
000200 21 80 83 bf a2 35 84 bf 12 03 91 bf 07 a5 bc 40
       -1.0273477 -1.0328867 -1.1329062 5.895145
000210 56 f7 1a 40 dd 03 a6 3f a7 a3 5a bf 87 bb 8b bd
       2.4213462 1.2969929 -0.85405964 -0.068228774
000220 b1 c5 67 bf a7 db ca bf ad 34 d7 bf e1 78 0c bf
       -0.9053603 -1.5848283 -1.681295 -0.54871947
000230 fb f5 ed bf 35 e5 64 40 7f 65 15 bf 9d 3c 9d bf
       -1.8590692 3.5764897 -0.58357996 -1.2284123
000240 ad 59 a1 3e c9 27 65 3f da d2 2d bf 4e c3 50 be
       0.3151373 0.8951383 -0.6789986 -0.20387003
000250 03 ce 31 3f c1 42 8d 3f 34 3d b6 3d c5 60 13 bf
       0.69454974 1.1035997 0.08898392 -0.57569534
000260 8c 68 23 bd 2d ce 08 bf c4 34 10 bf 86 0b 48 bf
       -0.039894626 -0.534396 -0.56330514 -0.78142583
000270 f3 96 d6 3e b4 f7 bb bd 78 89 20 40 f7 bc 12 3f
       0.4191204 -0.09178105 2.5083904 0.5731959
000280 6d fa 05 c0 96 26 c0 bf 7b 2e 83 3f 56 4d 30 3f
       -2.0934098 -1.5011775 1.024856 0.68868005
000290 01 1a 78 3f 70 6c 96 bf 16 b4 10 3f f1 d6 16 3f
       0.9691468 -1.1751842 0.5652479 0.58921725
0002a0 69 2b 07 3e 48 dd 6a 3e 21 52 5f 3f ea e2 19 3f
       0.13200153 0.22935975 0.87234694 0.6011187
0002b0 d3 fb 2c 3f ac 2e dc bf 35 f1 0b 3e b4 68 66 3f
       0.67571753 -1.7201743 0.13666232 0.90003514
0002c0 e9 b7 60 bf 1e e0 1f bf 26 ee 6a be e6 82 94 3f
       -0.87780625 -0.6245135 -0.22942409 1.1602447
0002d0 36 1d c0 3e 7b db bc 3c f9 12 7c 3f 00 9c 87 be
       0.37522286 0.023053875 0.9846645 -0.26486206
0002e0 5a 07 fb 3f 1f 62 85 3f a4 7a 77 bf 0d ef 01 bf
       1.9611619 1.0420569 -0.9667151 -0.5075539
0002f0 1c fc 76 be 00 e8 a7 3f 38 aa ab bd 9c 85 ec 3e
       -0.2411961 1.3117676 -0.08382076 0.46195686
000300 fd 95 aa 3d 65 ed 82 3e 03 35 16 3f b3 e9 64 bf
       0.08329389 0.25571743 0.5867464 -0.89419097
000310 19 d8 0a be 86 f2 c0 3e 90 52 89 bf 8c 65 c9 3f
       -0.13558997 0.3768503 -1.0728321 1.5734115
000320 db 79 7e 3f 34 e0 22 bf 6f e5 7f 3f 7f 92 55 bf
       0.99404687 -0.63623357 0.9995946 -0.8342666
000330 28 5c cc be b7 50 ad bf 32 a5 ee 3f 1b ef 6a 40
       -0.3991406 -1.3540257 1.8644164 3.6708438
000340 ab 3a a6 be 54 e7 0d 40 70 52 74 be db f5 d5 3e
       -0.32466635 2.2172441 -0.23859572 0.41789135
000350 0b b6 89 bf 90 3e 4d c0 5e 2f 16 c0 ee 87 14 c0
       -1.075868 -3.2069435 -2.346641 -2.3207965
000360 d1 17 a8 3e b5 4c 47 bf 31 8e f7 3f 4a e3 19 be
       0.3283067 -0.7785142 1.9340268 -0.1502811
000370 fd 9c b8 bd f7 10 4f 3f 18 9d a1 be da 69 02 bf
       -0.09014318 0.8088526 -0.31565166 -0.50942767
000380 85 a8 6d be 67 70 24 3f 59 f7 ad 3f ec bf 37 3f
       -0.23208816 0.6423401 1.359111 0.71777225
000390 8c 14 3c be 03 f6 bc bf 1d 0a 87 3d a8 52 a3 3e
       -0.18367213 -1.4762577 0.06593726 0.31899
0003a0 cc 0e a5 be 29 f2 a7 3e c8 d3 20 3f 76 20 9e bf
       -0.32237852 0.3280194 0.6282315 -1.2353656
0003b0 7d 05 34 c0 4c 03 8d 3e d9 e6 00 c0 b2 04 a3 3f
       -2.812835 0.27541578 -2.0140898 1.2735808
0003c0 5c cc 96 3e 8d 9c 4b 3f f6 6f 9d 3e 55 69 1c bf
       0.2945279 0.7953575 0.30749482 -0.61098224
0003d0 96 e5 61 bf 2f a6 21 bf 75 ad 68 be bf f0 2c bf
       -0.88240945 -0.631442 -0.22722419 -0.6755485
0003e0 fe a9 2e bf e5 8c c7 be c2 75 09 bf 19 5f 6d bf
       -0.6822814 -0.38974681 -0.5369531 -0.9272323
0003f0 44 f7 ca 3d ef 13 55 bf 50 b4 ee 3c 43 59 6a 3d
       0.099104434 -0.8323354 0.029138714 0.057214033
